trained/jvrc_stepper/actor.pt (torch, 326148 bytes, 9 tensors)

weight f4 [256, 41]
0.038982134 0.0957146 0.4664063 -0.12507793 0.4502088 0.5009593 -0.18504545 0.07403336
-0.086619675 0.06662449 -0.3386674 -0.40435222 -0.3777834 0.17381443 -0.158505 -0.043412764
0.0670593 -0.013912201 -0.25245973 0.4366073 0.5770427 -0.35035625 0.2013688 -0.5170706
-0.2984428 -0.20851454 0.39166403 -0.35689005 -0.047539745 -0.10429478 -0.16040382 0.24296273
0.18870346 0.113375515 -0.26821408 -0.00067762594 0.0024800696 0.040373147 0.06541143 -0.13761374
0.048644297 -0.4882548 0.4217923 0.305454 0.3739408 -0.32219175 -0.19373083 -0.02520265
0.022599546 0.2886509 -0.12196873 -0.20903178 -0.29433358 0.024535801 0.25766617 -0.16027012
0.07724266 0.3971056 -0.030926991 -0.06711676 0.14044222 0.1351078 -0.30495217 0.45620555
0.004582942 -0.27274483 0.18526673 -0.10647462 -0.3933001 0.20925874 -0.5950634 0.3672035
0.17872205 -0.3676075 -0.15355076 -0.11144306 0.11541833 0.17460614 -0.0032248893 0.1621157
0.08914778 -0.036687136 -0.020594371 -0.5193095 -0.11340713 0.16220845 0.23014987 0.10958678
0.4732491 0.52646124 -0.12974301 -0.5199829 0.0025535473 -0.10124863 0.34961075 -0.003582233
0.03002902 0.14362402 -0.15463147 0.19389755 9.213478e-05 0.036365837 -0.6192184 -0.525945
0.1289713 -0.041682623 0.21854722 -0.47056094 -0.16389106 -0.13831091 0.27819815 -0.2589718
0.2530897 -0.12553991 -0.06623341 -0.2235141 0.046702605 -0.005114694 0.017010665 -0.20269412
-0.21771911 0.024331223 0.16580209 -1.0102069 0.043813974 0.36973676 0.37965557 0.036885135
0.32737553 -0.10888833 -0.049544696 0.09981395 -0.2548001 0.011857477 0.13464256 0.5527445
-0.2143267 -0.11300866 0.100190565 0.18174444 -0.03494826 0.17174643 -0.33818796 0.20001969
0.6551646 -0.3706201 0.2036303 0.023735635 0.02678009 -0.016563095 0.43100405 -0.06140609
-0.046066068 -0.16998939 -0.1357827 -0.17169492 -0.39465433 -0.40391338 -0.14460188 -0.12417487
0.23493008 0.080081254 -0.062184364 0.28426924 -0.12564625 -0.27429646 0.16412872 -0.3674198
-0.09851323 0.25665668 0.18291076 0.13858558 0.33668947 0.011680618 -0.39657798 0.095468424
-0.07871969 -0.0012892436 -0.31545708 0.014739371 0.016449371 0.14104794 0.08273518 -0.5214709
0.07220211 0.35735595 -0.01824317 -0.26268455 -0.06821892 -0.42571336 -0.43902642 0.48297578
0.565195 -0.03575221 -0.18778396 -0.21817055 -0.1472758 -0.078268535 -0.21358794 -0.1241663
-0.035814844 -0.3195078 -0.019287253 0.14365567 -0.01381837 -0.086708605 0.009332984 -0.08393738
0.30318028 -0.087817095 -0.0696822 0.29177603 -0.20748843 -0.12262711 -0.055017047 -0.30037522
-0.10854288 -0.14267017 0.16305508 0.33189467 -0.3453583 -0.0934158 -0.1028903 0.45837373
0.010608551 -0.3001753 0.22104514 0.011023463 0.060505476 -0.41405535 -0.45538607 -0.33618864
-0.28511104 0.622753 -0.118850745 -0.4035559 0.10025154 0.08780553 0.01849989 0.06484883
-0.05998384 -0.12570736 0.15961789 -0.12556049 -0.19070895 -0.042883735 -0.3907961 0.011327597
0.1841218 -0.30176663 -0.676497 0.23481512 0.14157192 -0.011919825 -0.17329535 -0.09481195
00000000: bbab 1f3d 0406 c43d cecc ee3e 6e14 00be
00000010: c581 e63e de3e 003f 8e7c 3dbe cd9e 973d
00000020: a865 b1bd 6c72 883d d065 adbe 4107 cfbe
00000030: d36c c1be 69fc 313e 224f 22be 95d1 31bd
00000040: 6356 893d 00f0 63bc 6742 81be fe8a df3e
00000050: 12b9 133f e561 b3be 9f33 4e3e bd5e 04bf
00000060: 7fcd 98be d684 55be 3088 c83e 4bba b6be
00000070: 09b9 42bd 8098 d5bd e640 24be 39cb 783e
00000080: 7b3b 413e 6c31 e83d 5b53 89be b5a2 31ba
00000090: aa88 223b 505e 253d 6ef6 853d 9eea 0cbe
000000a0: 3e3f 473d 88fc f9be 29f5 d73e 7764 9c3e
000000b0: 2b75 bf3e 51f6 a4be 6061 46be ca75 cebc
000000c0: af22 b93c 0dca 933e beca f9bd 6d0c 56be
000000d0: e4b2 96be 4eff c83c d2ec 833e da1d 24be
000000e0: 6631 9e3d 6d51 cb3e 9a5a fdbc 8374 89bd
000000f0: 16d0 0f3e b359 0a3e b122 9cbe c693 e93e
00000100: 812c 963b 36a5 8bbe 90b6 3d3e 5e0f dabd
00000110: a15e c9be ec47 563e 1356 18bf 1902 bc3e
00000120: ea02 373e 0d37 bcbe 693c 1dbe 423c e4bd
00000130: 7260 ec3d f4cb 323e aa58 53bb a801 263e
00000140: 1c93 b63d 4045 16bd 87b5 a8bc 78f1 04bf
00000150: ff41 e8bd f919 263e 68ac 6b3e 096f e03d
00000160: b54d f23e 2ac6 063f 5adb 04be 991d 05bf
00000170: 6a59 273b 715b cfbd 2e00 b33e e6c3 6abb
00000180: 6bff f53c 2d12 133e b657 1ebe 148d 463e
00000190: 7c38 c138 58f4 143d 1985 1ebf 55a4 06bf
000001a0: 0d11 043e 66bb 2abd d8ca 5f3e 5ded f0be
000001b0: 0fd3 27be 60a1 0dbe fd6f 8e3e f497 84be
000001c0: f994 813e 898d 00be 62a5 87bd e1e0 64be
000001d0: 3b4b 3f3d 2a99 a7bb f359 8b3c 0c8f 4fbe
000001e0: c2f1 5ebe 4652 c73c 06c8 293e 764e 81bf
000001f0: 4876 333d 234e bd3e 3762 c23e de14 173d
00000200: c49d a73e d800 dfbd 61ef 4abd 426b cc3d
00000210: 2975 82be dd45 423c bddf 093e aa80 0d3f
00000220: 7578 5bbe 1671 e7bd b630 cd3d 371b 3a3e
00000230: e825 0fbd 4cde 2f3e f926 adbe f6d1 4c3e
00000240: deb8 273f ebc1 bdbe 7684 503e 3c71 c23c
00000250: eb61 db3c 54af 87bc 90ac dc3e f484 7bbd
00000260: c6af 3cbd b311 2ebe 9f0a 0bbe cbd0 2fbe
00000270: 2210 cabe bccd cebe 8412 14be 654f febd
00000280: 8391 703e a401 a43d 08b5 7ebd bd8b 913e
00000290: 69a9 00be 9670 8cbe 5c11 283e 731e bcbe
000002a0: 4ec1 c9bd 8168 833e f54c 3b3e 61e9 0d3e
000002b0: 9062 ac3e 1060 3f3c 450c cbbe f384 c33d
000002c0: ca37 a1bd d6fb a8ba 9783 a1be 677d 713c
000002d0: d5c0 863c df6e 103e 1071 a93d 1e7f 05bf
000002e0: b3de 933d 5cf7 b63e b372 95bc 977e 86be
000002f0: 5cb6 8bbd 1af7 d9be 12c8 e0be 9a48 f73e
00000300: 9fb0 103f e970 12bd 704a 40be 1a68 5fbe
00000310: 78cf 16be 414b a0bd ccb6 5abe e74a febd
00000320: 96b2 12bd 8796 a3be 4d00 9ebc 791a 133e
00000330: 7266 62bc 4894 b1bd 5fe9 183c 5ce7 abbd
00000340: 723a 9b3e 73d9 b3bd 8bb5 8ebd ab63 953e
00000350: d977 54be ec23 fbbd 8e59 61bd c8ca 99be
00000360: bb4b debd 2118 12be e9f7 263e 19ee a93e
00000370: ced2 b0be c850 bfbd 26b8 d2bd f6af ea3e
00000380: 7dcf 2d3c 94b0 99be a859 623e c19b 343c
00000390: 97d4 773d 10ff d3be 5d28 e9be eb20 acbe
000003a0: 13fa 91be be6c 1f3f 0568 f3bd e19e cebe
000003b0: ae50 cd3d 63d3 b33d 158d 973c 77cf 843d
000003c0: 9db1 75bd 6eb9 00be df72 233e ee92 00be
000003d0: 3549 43be dba6 2fbd 6d16 c8be 6397 393c
000003e0: 6d8a 3c3e 2881 9abe e82e 2dbf 6073 703e
000003f0: 3bf8 103e 5f4b 43bc 5674 31be c52c c2bd

bias f4 [256]
-0.19376996 -0.2777369 -0.06535476 -0.15849082 -0.30772597 -0.35051924 -0.05226503 -0.04185608
-0.24514283 -0.32498625 -0.24686208 -0.14956853 -0.18213512 -0.06790211 -0.057088934 -0.26647824
-0.19333784 -0.22054398 -0.015983952 -0.26573673 -0.14731771 -0.02790041 -0.071161956 -0.30745044
-0.30943802 -0.19035865 0.012641535 -0.21363506 -0.050552275 -0.13775197 -0.24212924 0.051959
-0.12527558 -0.07187509 -0.1428554 -0.15118368 0.017604461 -0.3840759 -0.024257982 -0.15777262
-0.24415836 -0.19577885 -0.280937 -0.09369571 -0.36711922 -0.29953593 0.035382424 0.05164471
-0.29749545 -0.10363372 -0.045005564 -0.056871172 -0.22640099 -0.28378537 -0.09302356 -0.20943797
-0.14026092 -0.115018696 -0.17553584 -0.20300603 -0.19036363 0.062565215 -0.20156525 -0.10703502
-0.1637009 -0.24242148 -0.2508938 -0.20509645 -0.082699895 -0.22736187 -0.1335442 -0.19161053
-0.30140254 0.06700878 -0.20149176 -0.16063964 -0.049945746 -0.07578545 0.0132603245 -0.22850803
0.016311565 -0.07188707 -0.12128873 -0.17440921 -0.19131602 -0.14467403 -0.1772849 -0.17797387
-0.2300081 -0.26332453 -0.17251256 -0.4138941 -0.120839514 -0.06983047 -0.1904576 -0.08386118
-0.2319236 -0.20691846 -0.22849165 -0.1297689 -0.10912905 -0.43709695 -0.3362185 -0.17838754
-0.076198384 -0.20620458 -0.09969976 -0.1865987 -0.04326656 -0.058843948 0.07506915 -0.14130484
-0.3191117 -0.19375947 -0.13933933 -0.15269361 -0.12950873 -0.17822653 -0.19701499 0.001578398
-0.041739155 -0.12559938 -0.25733006 -0.33338308 -0.27251375 -0.07267827 -0.16946664 -0.05085523
-0.23711412 -0.20811027 -0.07272562 -0.27022213 -0.13167696 -0.16674028 -0.14466107 -0.20649958
-0.22094439 -0.18211448 0.056868467 -0.36365154 -0.044776686 -0.20694943 -0.22758831 -0.014509015
-0.26090807 -0.1605859 -0.25009736 -0.18022393 -0.26417357 -0.14677174 -0.18662412 -0.10102997
-0.16263387 -0.27000237 -0.17477748 -0.30419353 -0.068602815 -0.06995963 -0.13111429 -0.09930843
-0.22684455 -0.13807586 -0.019572318 -0.16164261 -0.17170711 -0.12964973 -0.049730655 -0.19687778
-0.26266557 -0.12772745 -0.0017603692 0.044188626 -0.0844637 -0.480989 -0.24338813 -0.051708125
-0.026939483 -0.25084794 -0.39892146 -0.14181566 0.053638037 -0.13885753 -0.36509794 -0.18813902
-0.0878665 -0.23637508 -0.1687099 -0.21044213 -0.13413832 -0.28660876 -0.23578072 -0.29376498
-0.2288443 -0.2483827 -0.011665421 -0.22449167 -0.030190438 -0.23542708 -0.1455731 -0.13823104
-0.41696677 -0.13927479 -0.057151556 0.038624894 -0.12191871 -0.13484122 -0.1734613 -0.13099468
-0.14764126 -0.039269436 -0.2808501 -0.18359967 -0.21219 -0.2272704 -0.06966867 -0.19020325
-0.06523079 -0.33577466 -0.28093183 -0.10653217 -0.19797511 -0.07395032 -0.27165863 0.07956398
-0.14893745 -0.27621213 -0.20935382 -0.10463431 -0.19637199 -0.16181448 -0.33330473 -0.1865067
-0.10804894 -0.06004208 0.20175609 -0.21329276 -0.28336567 -0.08901796 -0.35909873 -0.25126353
-0.09447592 -0.004712777 -0.11977549 -0.13543133 -0.36987567 -0.16193055 0.014658891 -0.14335375
-0.21188436 -0.17328748 -0.28613484 -0.3431844 -0.15050869 -0.10943047 -0.21817781 -0.15778196
00000000: a26b 46be 8833 8ebe b7d8 85bd 6b4b 22be
00000010: 428e 9dbe 4277 b3be db13 56bd 4871 2bbd
00000020: b906 7bbe 9964 a6be 6ac9 7cbe 7e28 19be
00000030: a181 3abe 4310 8bbd 16d6 69bd d66f 88be
00000040: 5bfa 45be 48d6 61be c7f0 82bc a50e 88be
00000050: 74da 16be 678f e4bc 5cbd 91bd 256a 9dbe
00000060: a96e 9ebe 61ed 42be 711e 4f3c 26c3 5abe
00000070: e70f 4fbd da0e 0dbe baf0 77be f6d2 543d
00000080: 3e48 00be 3f33 93bd b048 12be e5cf 1abe
00000090: 3b37 903c 99a5 c4be adb8 c6bc 258f 21be
000000a0: a604 7abe 407a 48be f9d6 8fbe 89e3 bfbd
000000b0: 0df7 bbbe c65c 99be 29ed 103d 6789 533d
000000c0: 5351 98be ea3d d4bd c157 38bd bff1 68bd
000000d0: a9d5 67be 514c 91be 2383 bebd e876 56be
000000e0: 8fa0 0fbe ec8e ebbd abbf 33be d0e0 4fbe
000000f0: afee 42be 3122 803d 1f67 4ebe 2d35 dbbd
00000100: 35a1 27be 563d 78be 2775 80be ce04 52be
00000110: 905e a9bd 8dd1 68be d0bf 08be 8d35 44be
00000120: 6f51 9abe e63b 893d db53 4ebe b87e 24be
00000130: e993 4cbd 6735 9bbd d541 593c 02fe 69be
00000140: d59f 853c 8739 93bd 3a66 f8bd 5498 32be
00000150: 59e8 43be 6e25 14be 2c8a 35be c83e 36be
00000160: 3e87 6bbe 79d2 86be 22a7 30be ede9 d3be
00000170: b57a f7bd 4703 8fbd 5107 43be 69bf abbd
00000180: 617d 6dbe 6fe2 53be b7f9 69be 23e2 04be
00000190: 0d7f dfbd 2ccb dfbe d524 acbe 39ab 36be
000001a0: e60d 9cbd 4b27 53be 632f ccbd bb13 3fbe
000001b0: 4738 31bd 5a06 71bd dbbd 993d 37b2 10be
000001c0: 9c62 a3be e268 46be f8ae 0ebe b75b 1cbe
000001d0: f09d 04be 0481 36be 4cbe 49be 40e2 ce3a
000001e0: adf6 2abd 209d 00be c4c0 83be 30b1 aabe
000001f0: ec86 8bbe 58d8 94bd aa88 2dbe 934d 50bd
00000200: 0bce 72be dc1a 55be 2bf1 94bd 8e5a 8abe
00000210: 53d6 06be f7bd 2abe 0822 14be a074 53be
00000220: 3f3f 62be 387c 3abe e9ee 683d 8930 babe
00000230: c267 37bd 8dea 53be e90c 69be 38b7 6dbc
00000240: be95 85be a170 24be c30c 80be 9f8c 38be
00000250: c241 87be 554b 16be 651a 3fbe cde8 cebd
00000260: 7e89 26be c03d 8abe def8 32be 41bf 9bbe
00000270: a27f 8cbd ff46 8fbd d342 06be 3862 cbbd
00000280: f049 68be c263 0dbe 2056 a0bc a485 25be
00000290: fdd3 2fbe e6c2 04be 5fb2 4bbd 549a 49be
000002a0: 1a7c 86be fcca 02be 30bc e6ba 22ff 343d
000002b0: 4efb acbd 3144 f6be bd3a 79be e6cb 53bd
000002c0: 31b0 dcbc 246f 80be 6f3f ccbe 2038 11be
000002d0: 8fb3 5b3d ab30 0ebe 1eee babe 84a7 40be
000002e0: 5af3 b3bd 4f0c 72be 4ac2 2cbe 247e 57be
000002f0: 8e5b 09be 62be 92be 8070 71be 5d68 96be
00000300: 2956 6abe 0958 7ebe 5220 3fbc 25e1 65be
00000310: f051 f7bc cc13 71be 1d11 15be 708c 0dbe
00000320: ab7c d5be 0d9e 0ebe c017 6abd 2335 1e3d
00000330: 84b0 f9bd d113 0abe d79f 31be 7823 06be
00000340: 452f 17be fdd8 20bd 96cb 8fbe 8d01 3cbe
00000350: 5648 59be 92b9 68be 73ae 8ebd a4c4 42be
00000360: b897 85bd a8ea abbe 4cd6 8fbe 8a2d dabd
00000370: fdb9 4abe 4473 97bd d716 8bbe 71f2 a23d
00000380: 0f83 18be ad6b 8dbe d960 56be 834a d6bd
00000390: bd15 49be b2b2 25be eba6 aabe 9dfb 3ebe
000003a0: c348 ddbd afee 75bd 2699 4e3e 6b69 5abe
000003b0: 4e15 91be 0c4f b6bd cadb b7be 9da5 80be
000003c0: 977c c1bd a46d 9abb da4c f5bd 83ae 0abe
000003d0: 5860 bdbe 1fd1 25be d82b 703c 53cb 12be
000003e0: 37f8 58be 4672 31be 4480 92be deb5 afbe
000003f0: f31e 1abe 151d e0bd 016a 5fbe 9891 21be

weight f4 [256, 256]
-0.10434874 -0.05155145 0.03122523 -0.15487829 0.015875008 -0.1272891 0.06266407 0.068014264
-0.08542585 -0.023375079 -0.10057192 -0.041754827 -0.028601611 -0.0643578 -0.027025728 0.03988493
0.06522595 -0.016441602 -0.06941492 -0.06545093 0.026055144 -0.038089972 0.03797004 -0.050102986
-0.06677357 -0.116225086 0.053199142 0.009874998 0.095278755 -0.10743173 0.09925382 0.015957199
-0.109080575 -0.14477248 0.04961874 -0.039589055 -0.04901655 0.02146788 0.025986448 0.064649515
0.10792277 -0.03690641 0.11565611 -0.1954789 -0.060642734 -0.14719084 -0.01535628 -0.02035414
-0.116555035 -0.067415245 -0.09880528 0.060844768 0.05481223 -0.20551705 -0.10677165 -0.09944582
-0.16379188 0.075775266 0.06414643 -0.053096 -0.017886903 -0.25273854 -0.13228637 -0.056092758
-0.008688746 -0.050526783 -0.10083731 -0.076557 0.020556938 -0.14867629 -0.10000285 -0.015664512
0.0975709 0.046596315 0.021244274 -0.036158163 0.0056466917 -0.131162 0.007704217 -0.023356123
-0.03607236 0.0060710306 0.0013584011 -0.16014442 -0.08200444 -0.008164176 0.04288045 -0.0048397384
-0.10364418 -0.03440943 0.020444946 -0.052086975 -0.0074106427 0.0537338 -0.12833357 -0.053698774
-0.042832438 -0.0070449803 -0.056325674 0.0015669907 -0.033290185 -0.12361335 0.12969363 0.03692678
-0.099340126 -0.06061253 -0.066401735 0.14312574 -0.12693374 -0.0063158674 -0.03155987 -0.12029903
-0.012791384 -0.064429976 -0.021250756 -0.08179561 -0.056626365 -0.005889926 -0.03282227 0.027988268
0.10089448 -0.12314152 -0.012290857 -0.1447207 -0.2607134 0.10945341 -0.14321104 -0.14389491
-0.034160145 -0.11534551 -0.17556815 -0.02907587 0.057073306 -0.1335766 -0.14048037 -0.041124593
-0.032774806 -0.10553644 -0.003214992 -0.14571378 0.07009523 0.035208922 -0.12576866 -0.009603012
-0.12286973 -0.021290835 -0.18149078 -0.10141234 -0.00055417255 0.025215454 -0.01815406 -0.08509023
-0.018433379 0.0048891744 -0.124817476 0.0711367 -0.06152106 0.0936692 -0.09588259 0.22660334
0.012884813 0.052593198 -0.13145521 -0.101272695 0.008890849 -0.09066199 -0.007820558 -0.12688383
0.048045255 -0.0637569 -0.08771291 -0.009701623 0.048191883 -0.111569025 -0.00455181 -0.06709635
-0.19640106 -0.15075941 0.028064683 -0.084874325 0.13121073 -0.18141057 -0.03630684 0.0582682
0.08187438 -0.009466468 0.10870295 -0.06581825 0.08005054 -0.020796346 0.043895 0.13743895
-0.08844407 -0.053177845 0.04325819 0.024328357 0.094961934 0.028122423 -0.018306162 -0.016184427
-0.0355928 -0.077539854 0.06941089 0.036362566 0.03866845 -0.04733724 -0.08732357 -0.1351154
0.0723604 -0.1435059 -0.038456965 -0.15516517 -0.06443083 0.018405251 -0.029538622 -0.055436496
0.025827153 -0.04240336 -0.035568014 -0.071849145 -0.076235436 -0.022955617 0.0378214 -0.021339348
-0.13528849 0.038235642 -0.06007709 -0.038206898 -0.05514961 0.025987355 -0.20695505 -0.005325797
0.025631538 -0.12524696 -0.02431135 0.0204501 -0.08555286 -0.039149668 -0.08346279 -0.011094323
0.07600238 -0.03669377 0.04644164 0.06476271 -0.19153962 -0.04660619 4.0080936e-06 -0.074371845
-0.03883255 0.02551726 -0.014517035 0.020240583 0.015245973 0.05242623 -0.060942747 -0.089466594
00000000: cbb4 d5bd 9d27 53bd 0ecc ff3c 6a98 1ebe
00000010: 4e0c 823c 1358 02be 0556 803d 104b 8b3d
00000020: bff3 aebd 187d bfbc a7f8 cdbd 1c07 2bbd
00000030: ed4d eabc 06ce 83bd 0f65 ddbc 615e 233d
00000040: 2f95 853d 8ab0 86bc 6929 8ebd 230b 86bd
00000050: 9971 d53c 3b04 1cbd 7986 1b3d ca38 4dbd
00000060: 95c0 88bd 6b07 eebd 58e7 593d beca 213c
00000070: 8221 c33d 2b05 dcbd 9645 cb3d acb8 823c
00000080: a365 dfbd 3d3f 14be 053d 4b3d 2228 22bd
00000090: 94c5 48bd 68dd af3c 88e1 d43c f766 843d
000000a0: 9d06 dd3d 2d2b 17bd 1cdd ec3d 9f2b 48be
000000b0: 8464 78bd 32b9 16be e898 7bbc babd a6bc
000000c0: 68b4 eebd 0111 8abd 6c5a cabd 5d38 793d
000000d0: ca82 603d 1073 52be 18ab dabd 40aa cbbd
000000e0: 0fb9 27be 1030 9b3d 345f 833d 317b 59bd
000000f0: 8e87 92bc f266 81be 1476 07be 85c1 65bd
00000100: 3e5b 0ebc 2cf5 4ebd cb83 cebd ebc9 9cbd
00000110: 0667 a83c 993e 18be 4bce ccbd dd52 80bc
00000120: 41d3 c73d c7db 3e3d 7908 ae3c 951a 14bd
00000130: e207 b93b 554f 06be a873 fc3b 5755 bfbc
00000140: 9cc0 13bd 7fef c63b 610c b23a e6fc 23be
00000150: f2f1 a7bd 09c3 05bc 69a3 2f3d ab96 9ebb
00000160: 6643 d4bd e7f0 0cbd 297c a73c 2759 55bd
00000170: fad4 f2bb f917 5c3d e069 03be 3ff3 5bbd
00000180: 1171 2fbd 94d9 e6bb c0b5 66bd 7c63 cd3a
00000190: 4a5b 08bd ff28 fdbd 68ce 043e 8940 173d
000001a0: d672 cbbd d844 78bd a2fd 87bd 8e8f 123e
000001b0: ebfa 01be 56f5 cebb ec44 01bd 565f f6bd
000001c0: f492 51bc ddf3 83bd 1116 aebc 7584 a7bd
000001d0: 0cf1 67bd 4800 c1bb a570 06bd a747 e53c
000001e0: c4a1 ce3d 9f31 fcbd 975f 49bc aa31 14be
000001f0: 3a7c 85be 1c29 e03d eaa5 12be 3059 13be
00000200: 82eb 0bbd 443a ecbd 23c8 33be 8530 eebc
00000210: b3c5 693d 4ec8 08be 16da 0fbe 4372 28bd
00000220: e03e 06bd 7d23 d8bd 9db2 52bb fe35 15be
00000230: 178e 8f3d 3b37 103d 80c9 00be f455 1dbc
00000240: 20a3 fbbd 1e6a aebc b8d8 39be 46b1 cfbd
00000250: e445 11ba a490 ce3c d3b7 94bc c943 aebd
00000260: 9901 97bc 5e35 a03b 4ea0 ffbd 1eb0 913d
00000270: 82fd 7bbd a3d5 bf3d 175e c4bd b50a 683e
00000280: d31a 533c f76b 573d 329c 06be 0f68 cfbd
00000290: ecaa 113c feac b9bd cc21 00bc d6ed 01be
000002a0: 1acb 443d fa92 82bd d3a2 b3bd 8ef3 1ebc
000002b0: da64 453d 4d7e e4bd 5a27 95bb d069 89bd
000002c0: 5c1d 49be ad60 1abe e8e7 e53c 97d2 adbd
000002d0: 1b5c 063e b1c3 39be 7bb6 14bd a3aa 6e3d
000002e0: c1ad a73d 3f19 1bbc a79f de3d b8cb 86bd
000002f0: 8af1 a33d 195d aabc 3ecb 333d ccbc 0c3e
00000300: 2a22 b5bd 03d1 59bd 802f 313d 434c c73c
00000310: 677b c23d ff60 e63c cef6 95bc 3495 84bc
00000320: c1c9 11bd 37cd 9ebd 4c27 8e3d eaf0 143d
00000330: cf62 1e3d b2e4 41bd b3d6 b2bd b15b 0abe
00000340: b031 943d 36f3 12be 0d85 1dbd 9ee3 1ebe
00000350: 50f4 83bd 9cc6 963c fbfa f1bc 6111 63bd
00000360: 7793 d33c 25af 2dbd c4af 11bd a525 93bd
00000370: 5321 9cbd 6b0d bcbc 9dea 1a3d dbcf aebc
00000380: 1189 0abe fa9c 1c3d 6513 76bd d67e 1cbd
00000390: 8fe4 61bd 6fe3 d43c 06ec 53be 0684 aebb
000003a0: 3bf9 d13c bd40 00be 9928 c7bc f886 a73c
000003b0: 5636 afbd 675b 20bd 8aee aabd f7c4 35bc
000003c0: 23a7 9b3d 354c 16bd 9739 3e3d 50a2 843d
000003d0: f622 44be 22e6 3ebd 437d 8636 4450 98bd
000003e0: e10e 1fbd 9309 d13c dcd8 6dbc 94cf a53c
000003f0: 3fca 793c e3bc 563d 1a9f 79bd 433a b7bd

bias f4 [256]
-0.048226196 0.036589984 -0.0866568 -0.21800411 0.24959694 0.16318701 -0.12047179 0.17748831
-0.051036496 -0.04323348 -0.05939089 -0.075327724 -0.06270926 0.05914467 0.080955274 -0.008911417
-0.12602188 0.02044923 0.14562654 0.13526307 -0.01883454 -0.14171611 0.022493944 -0.036659006
-0.096995205 -0.017071826 0.07712311 0.097072236 -0.06263584 -0.08048483 -0.012393064 -0.08976011
-0.08483988 0.038855735 -0.094884135 -0.039778985 -0.06372856 -0.09834448 0.05265061 -0.033164807
-0.10243905 -0.095768705 -0.13477413 0.03038373 -0.2208212 -0.0429306 -0.12295816 -0.101181336
-0.14187294 0.057946254 0.0036972829 -0.093455195 0.010246852 -0.10785548 -0.08090906 -0.060185682
-0.06196986 -0.2236725 0.07125315 0.13974628 0.030103626 0.009182234 -0.04250613 0.09424796
-0.008511964 0.08731148 -0.101163715 -0.014010257 -0.16377166 -0.0036209617 -0.23261061 -0.018922403
-0.006771165 -0.04437349 -0.09742109 0.11349703 0.20274866 -0.1600285 -0.055200994 0.08520859
0.03831624 -0.05921414 0.06336051 0.07021364 0.029797696 0.011039661 -0.037626892 -0.14421335
-0.08276833 -0.06522547 -0.027306877 -0.122833796 -0.08029849 -0.06374377 0.015746927 -0.04823948
-0.19247682 -0.0847564 0.02399045 0.037711743 0.16201507 -0.06636954 0.012480701 -0.036793392
-0.088176504 -0.1573966 0.05666813 -0.0024195276 -0.00723695 0.031606503 -0.05546646 -0.1098017
-0.17896748 -0.13630582 -0.124317154 0.08756826 0.07782348 -0.0637152 -0.014901861 0.059995234
-0.094845705 -0.055851918 0.13082212 0.03492771 -0.049598407 -0.044561923 -0.104613535 -0.015412569
-0.12416569 -0.014608792 0.011443698 0.07687393 0.065952316 0.010676019 0.08221692 -0.097086035
-0.12058342 0.078807205 -0.034492042 -0.034560293 -0.15939204 0.0084474925 0.09331524 -0.068134256
-0.0694788 0.020307938 -0.08198322 0.046397533 0.05698956 -0.048810385 0.0098886555 -0.020494986
0.06704426 -0.23477302 -0.019632401 -0.17587407 0.08270808 0.14962398 -0.011862486 -0.060307335
-0.060308967 0.058468107 0.18921578 -0.1666471 -0.068228506 -0.017195372 0.046111647 -0.07998838
-0.012106622 0.017953482 -0.031243894 0.031925198 0.14615838 0.026936697 -0.030607654 0.02604341
0.0022744907 -0.07981595 -0.10439994 0.15040343 0.1082178 -0.13824737 -0.022708323 -0.0055598756
0.015697444 0.03800586 -0.013297237 -0.009120512 -0.035958596 -0.009227412 -0.0691484 0.06256546
0.020597247 -0.037270542 0.14455129 -0.13572156 -0.11725547 -0.0037760744 -0.04406734 0.069591016
0.006469102 -0.09101893 0.07185419 0.078664914 -0.14918362 -0.05611433 0.007466346 -0.10908992
-0.11137895 -0.14434612 -0.04216714 -0.1885807 -0.012683931 0.06935584 0.07357607 -0.0036386896
-0.24602297 -0.11922639 -0.0076136086 -0.16574475 -0.10813185 0.027421959 -0.1589196 -0.11617007
0.021257455 0.028753048 -0.14139673 -0.040127695 -0.06404576 0.032101527 0.08026793 -0.018976122
-0.004554451 -0.04176296 -0.20351759 -0.07690587 -0.07124227 0.013087595 -0.11146378 -0.1453805
-0.105474815 0.046476427 0.13092196 -0.23033443 -0.09583948 0.012923891 -0.014101556 0.07749108
-0.11370605 -0.1308321 -0.0051546255 -0.05716149 0.045084506 -0.0005316708 -0.09225017 0.2341797
00000000: d588 45bd 61df 153d 1f79 b1bd 783c 5fbe
00000010: 5796 7f3e 7f1a 273e eab9 f6bd 7fbf 353e
00000020: a50b 51bd 9715 31bd dd43 73bd 6c45 9abd
00000030: b66d 80bd ae41 723d e1cb a53d 3101 12bc
00000040: e10b 01be 2585 a73c 201f 153e 6782 0a3e
00000050: e54a 9abc 071e 11be 3845 b83c c127 16bd
00000060: 6ca5 c6bd 37da 8bbc b9f2 9d3d cfcd c63d
00000070: 3847 80bd 3bd5 a4bd 470c 4bbc 26d4 b7bd
00000080: 88c0 adbd 3127 1f3d 9d52 c2bd 4aef 22bd
00000090: 1f84 82bd d568 c9bd 2ba8 573d d2d7 07bd
000000a0: 91cb d1bd 6222 c4bd 3b02 0abe 4de7 f83c
000000b0: f41e 62be ffd7 2fbd 7dd1 fbbd 2938 cfbd
000000c0: 2447 11be 0d59 6d3d 1d4e 723b 7065 bfbd
000000d0: 6ae2 273c 55e3 dcbd a6b3 a5bd 4385 76bd
000000e0: 1cd4 7dbd 670a 65be 2ced 913d a619 0f3e
000000f0: e19b f63c 1571 163c e81a 2ebd 1305 c13d
00000100: c475 0bbc 5cd0 b23d ec2e cfbd 478b 65bc
00000110: c2b3 27be a84d 6dbb 7a31 6ebe 2803 9bbc
00000120: a6e0 ddbb fac0 35bd b584 c7bd 2271 e83d
00000130: 589d 4f3e 83de 23be 701a 62bd d781 ae3d
00000140: 7df1 1c3d 878a 72bd 28c3 813d 2bcc 8f3d
00000150: 4c1a f43c b2df 343c a81e 1abd aaac 13be
00000160: 7182 a9bd ee94 85bd acb2 dfbc 4990 fbbd
00000170: 8973 a4bd 188c 82bd b3ff 803c c396 45bd
00000180: a518 45be c394 adbd 9f87 c43c a177 1a3d
00000190: 47e7 253e c1ec 87bd db7b 4c3c abb4 16bd
000001a0: e295 b4bd 932c 21be d71c 683d f090 1ebb
000001b0: f023 edbb d275 013d cc30 63bd b7df e0bd
000001c0: 4043 37be c193 0bbe fe99 febd fd56 b33d
000001d0: eb61 9f3d 1d7d 82bd ef26 74bc 90bd 753d
000001e0: 773e c2bd fbc4 64bd 3cf6 053e 5c10 0f3d
000001f0: b327 4bbd 9086 36bd 9f3f d6bd 0085 7cbc
00000200: 954a febd b759 6fbc 597e 3b3c 1470 9d3d
00000210: 0212 873d 78ea 2e3c 5861 a83d 0bd5 c6bd
00000220: 71f4 f6bd ac65 a13d 8747 0dbd 188f 0dbd
00000230: ab37 23be 5a67 0a3c 101c bf3d f989 8bbd
00000240: e74a 8ebd d55c a63c d2e6 a7bd 570b 3e3d
00000250: e36d 693d 66ed 47bd 0704 223c 1ae5 a7bc
00000260: 804e 893d 5768 70be 21d4 a0bc 5518 34be
00000270: db62 a93d 0737 193e df5a 42bc d304 77bd
00000280: 8906 77bd 417c 6f3d c8c1 413e 8aa5 2abe
00000290: 63bb 8bbd 4fdd 8cbc 91df 3c3d f3d0 a3bd
000002a0: da5a 46bc 2e13 933c 32f3 ffbc ffc3 023d
000002b0: 8baa 153e 59aa dc3c e7bc fabc fd58 d53c
000002c0: 9f0f 153b 8b76 a3bd a3cf d5bd 5b03 1a3e
000002d0: 4ba1 dd3d b890 0dbe ce06 babc 9e2f b6bb
000002e0: ed97 803c 08ac 1b3d a8dc 59bc 336e 15bc
000002f0: 5249 13bd 922e 17bc ad9d 8dbd 5222 803d
00000300: 8fbb a83c ffa8 18bd 4105 143e 98fa 0abe
00000310: a323 f0bd 0478 77bb f57f 34bd bc85 8e3d
00000320: c3fa d33b 2268 babd 4a28 933d 121b a13d
00000330: 97c3 18be 24d8 65bd 40a8 f43b 896a dfbd
00000340: a61a e4bd 78cf 13be 73b7 2cbd 4d1b 41be
00000350: 43d0 4fbc 6f0a 8e3d 0daf 963d 1577 6ebb
00000360: 72ed 7bbe f72c f4bd 947b f9bb feb8 29be
00000370: 3b74 ddbd 04a4 e03c d2bb 22be 93ea edbd
00000380: 1d24 ae3c 838b eb3c 4eca 10be f05c 24bd
00000390: 6c2a 83bd e47c 033d 8363 a43d d073 9bbc
000003a0: 813d 95bb a30f 2bbd ea66 50be d380 9dbd
000003b0: 78e7 91bd 5a6d 563c 1f47 e4bd a0de 14be
000003c0: 2e03 d8bd 115e 3e3d 6810 063e cadc 6bbe
000003d0: 7d47 c4bd babe 533c 360a 67bc a5b3 9e3d
000003e0: b8de e8bd daf8 05be 22e8 a8bb 2b22 6abd
000003f0: 88aa 383d d35f 0bba a8ed bcbd cecc 6f3e

weight f4 [12, 256]
0.055264585 -0.12368077 -0.1363833 -0.13830596 -0.019193038 -0.03456497 -0.13302192 0.259017
0.11185593 -0.0210338 0.06589182 0.11214747 -0.25368828 -0.11803915 0.1503259 0.009122219
0.17246343 0.016663997 -0.16300455 0.08282184 0.17643899 -0.087644204 -0.29325587 0.014517793
-0.06597735 0.16301386 -0.13207749 0.08189773 0.33260232 0.06335709 0.1564404 -0.072473004
-0.14390288 -0.1256421 -0.14153898 0.097613454 0.05046407 0.08303439 -0.036651533 -0.008129065
-0.017154366 -0.03791713 0.105323255 0.10813746 -0.1033737 0.03910637 -0.05896193 0.25012928
-0.093267225 0.028957197 -0.006940779 -0.012835335 0.19336566 0.20261805 -0.2400748 0.030242577
0.17372921 -0.041093424 0.075638205 -0.13580726 -0.14281493 0.08749655 -0.03343753 -0.04258352
0.004004992 0.3665551 0.004344707 -0.22103104 0.24459836 -0.18477368 0.013200067 -0.09601742
-0.12505555 -0.17433934 -0.20752038 0.21148758 -0.01197074 -0.12410846 0.11818363 0.124420375
0.058221128 -0.04397639 0.091609694 -0.084501885 0.030055396 0.020028729 -0.010633704 0.014889817
0.33666748 -0.05658757 -0.0061225817 -0.0132329725 -0.013006745 -0.116038814 -0.1105509 0.24444039
0.05537709 0.06824802 0.14958613 -0.17307289 0.005292446 0.041373692 0.2588476 0.09707731
-0.21546683 -0.14670695 -0.03748712 0.4977143 -0.27108034 0.019134372 0.14519803 -0.051819097
0.07373693 -0.026287291 -0.013224831 -0.078147575 0.063146226 0.14642452 0.23041727 0.00958883
0.05219821 -0.10630871 0.17251693 -0.009482371 0.12257925 0.034863252 0.07761613 -0.37327188
0.015348316 -0.028491866 0.07601363 0.05790406 0.07592736 -0.23126824 -0.07480834 0.21409091
-0.03535636 -0.16870694 -0.11079564 0.20051749 0.051201787 -0.06681335 0.37425476 0.48450887
-0.030866401 0.007784561 0.014754742 -0.10043334 -0.04958798 0.21529995 -0.15126136 -0.10530625
0.08439603 -0.004536454 -0.18031907 0.19544616 0.10585353 -0.060395036 -0.31176555 -0.19464983
-0.011679942 -0.097825095 0.06451374 0.007890086 -0.03537367 -0.065313 -0.021432519 -0.2387692
0.06164928 0.017588198 -0.10775732 0.03151771 -0.06261485 0.19827573 0.2785905 -0.30367076
0.09349964 0.15421328 -0.087357976 0.06438988 0.07412819 -0.07853875 0.0644646 0.08880228
0.15913597 0.42662823 -0.11494253 -0.012322339 -0.13054013 0.08339368 0.11785915 -0.061172113
0.10514131 0.13124453 -0.10756043 0.05640865 -0.20619094 0.106726475 -0.020166429 -0.20163113
-0.14254603 -0.04610221 0.017770408 0.06861767 -0.093145885 -0.11199507 0.12450577 0.0796345
-0.13065845 0.11002835 0.016703 -0.036222268 0.2052289 -0.07242498 -0.010008807 0.06143206
0.04629261 0.11412827 0.15702473 -0.21160148 -0.069570005 0.026405765 -0.079107635 -0.028672198
0.09705679 -0.1283225 -0.33342123 0.17401205 -0.005344725 -0.07180345 0.08785923 -0.09853247
-0.29631403 0.18796131 -0.05872916 0.10780583 -0.24868692 0.27258793 -0.19784649 0.13593768
0.010210229 -0.0937415 0.070552096 0.0406881 0.03732951 0.0037948822 -0.11618946 0.07099574
0.02406924 -0.046611868 0.2741891 0.05364408 0.16235727 -0.034100827 0.053133417 0.09999958
00000000: 1e5d 623d 584c fdbd 10a8 0bbe 14a0 0dbe
00000010: b83a 9dbc ff93 0dbd e636 08be e09d 843e
00000020: b914 e53d 134f acbc 4af2 863d 93ad e53d
00000030: 6ee3 81be 83be f1bd 08ef 193e 5c75 153c
00000040: 419a 303e ef82 883c aaea 26be 7f9e a93d
00000050: 6cac 343e ce7e b3bd a225 96be 0adc 6d3c
00000060: 221f 87bd 1bed 263e 523f 07be ffb9 a73d
00000070: da4a aa3e 5dc1 813d ea31 203e ba6c 94bd
00000080: 475b 13be 53a8 00be 98ef 10be 90e9 c73d
00000090: 6ab3 4e3d ef0d aa3d eb1f 16bd c52f 05bc
000000a0: 5087 8cbc fe4e 1bbd b8b3 d73d 2c77 dd3d
000000b0: 97b5 d3bd 002e 203d 1182 71bd f210 803e
000000c0: e302 bfbd a537 ed3c 796f e3bb 4c4b 52bc
000000d0: a601 463e 1b7b 4f3e 2bd6 75be 48bf f73c
000000e0: 12e6 313e 9451 28bd 34e8 9a3d 0f11 0bbe
000000f0: 143e 12be 6431 b33d cbf5 08bd 0f6c 2ebd
00000100: 4f3c 833b 1cad bb3e 0b5e 8e3b f655 62be
00000110: fe77 7a3e 5035 3dbe 1845 583c c8a4 c4bd
00000120: 900e 00be 0386 32be 3980 54be 3390 583e
00000130: ec20 44bc 942c febd 420a f23d 1cd0 fe3d
00000140: 4779 6e3d 9620 34bd dd9d bb3d 530f adbd
00000150: bc36 f63c 4a13 a43c fd38 2ebc 6bf4 733c
00000160: ae5f ac3e 5ec8 67bd f09f c8bb 1ccf 58bc
00000170: 3e1a 55bc c2a5 edbd 8368 e2bd 954e 7a3e
00000180: 16d3 623d 9ec5 8b3d 1b2d 193e 053a 31be
00000190: 416c ad3b 7677 293d ac87 843e 78d0 c63d
000001a0: 56a3 5cbe 593a 16be 188c 19bd 69d4 fe3e
000001b0: 0bcb 8abe b0bf 9c3c cbae 143e 4340 54bd
000001c0: 6303 973d 7258 d7bc f6ac 58bc d60b a0bd
000001d0: cf52 813d 4ff0 153e 81f2 6b3e 781a 1d3c
000001e0: cacd 553d 62b8 d9bd 47a8 303e f25b 1bbc
000001f0: d40a fb3d c5cc 0e3d 35f5 9e3d 7e1d bfbe
00000200: 8177 7b3c c667 e9bc 09ad 9b3d cf2c 6d3d
00000210: ce7f 9b3d 95d1 6cbe 1d35 99bd a63a 5b3e
00000220: d5d1 10bd 83c1 2cbe d3e8 e2bd 7554 4d3e
00000230: f7b8 513d 70d5 88bd 529e bf3e 8c11 f83e
00000240: 89db fcbc a115 ff3b e0bd 713c ffaf cdbd
00000250: c41c 4bbd 9777 5c3e 42e4 1abe ceaa d7bd
00000260: d3d7 ac3d 89a6 94bb 90a5 38be 0a23 483e
00000270: bcc9 d83d c960 77bd bc9f 9fbe 4952 47be
00000280: 3a5d 3fbc 8658 c8bd c81f 843d 6b45 013c
00000290: fbe3 10bd d2c2 85bd 4093 afbc ea7f 74be
000002a0: f583 7c3d 2015 903c dfaf dcbd b718 013d
000002b0: 373c 80bd cb08 4b3e 6aa3 8e3e bc7a 9bbe
000002c0: bd7c bf3d 16ea 1d3e bde8 b2bd d7de 833d
000002d0: 85d0 973d edd8 a0bd 0406 843d f8dd b53d
000002e0: 8af4 223e 046f da3e fd66 ebbd a3e3 49bc
000002f0: 50ac 05be 4eca aa3d 2360 f13d 9c8f 7abd
00000300: 5454 d73d f764 063e a548 dcbd c20c 673d
00000310: b823 53be 6993 da3d 1134 a5bc 6478 4ebe
00000320: 96f7 11be acd5 3cbd 3f93 913c 6c87 8c3d
00000330: 45c3 bebd ac5d e5bd e2fc fe3d 6a17 a33d
00000340: 54cb 05be 8b56 e13d bbd4 883c cd5d 14bd
00000350: 8627 523e 8c53 94bd fbfb 23bc 2fa0 7b3d
00000360: 529d 3d3d 15bc e93d 17cb 203e 0fae 58be
00000370: b87a 8ebd e750 d83c 2f03 a2bd f5e1 eabc
00000380: b6c5 c63d f966 03be 30b6 aabe 3730 323e
00000390: ce22 afbb b00d 93bd 8aef b33d 64cb c9bd
000003a0: 79b6 97be ee78 403e fd8d 70bd 4ec9 dc3d
000003b0: c9a7 7ebe a590 8b3e 4598 4abe 3f33 0b3e
000003c0: ce48 273c 8bfb bfbd 9e7d 903d 91a8 263d
000003d0: d4e6 183d 8fb3 783b bdf4 edbd 3766 913d
000003e0: db2c c53c 16ec 3ebd 8462 8c3e e5b9 5b3d
000003f0: fc40 263e 4fad 0bbd 6da2 593d 94cc cc3d

bias f4 [12]
-0.092507444 -0.12567613 0.008518565 0.039873708 -0.018855745 -0.021572402 -0.10825348 0.1041408
0.015819358 0.037453145 0.03231722 -0.015672963
00000000: 8b74 bdbd 3eb1 00be 7491 0b3c 9d52 233d
00000010: 5d77 9abc 9bb8 b0bc 00b4 ddbd c647 d53d
00000020: 9997 813c 7868 193d 105f 043d 9664 80bc

action f4 [64, 12]
-0.4142232 0.14570963 -0.24770743 0.51882625 -0.02704762 0.060404293 0.037786923 -0.25100517
-0.32838878 -0.10488074 -0.11815059 0.14139551 0.0393776 0.07332522 -0.054115377 0.20376053
-0.18091202 0.016811399 0.056921817 0.064089194 -0.027205251 0.09064129 -0.2434841 0.27891102
-0.17616618 0.13411552 -0.11609528 -0.09457445 0.14443073 0.40222424 -0.04888308 0.35765427
0.075623415 -0.2162176 -0.35905695 0.50792426 -0.14820264 0.1686222 -0.06368149 0.018679332
-0.028751915 -0.06750123 -0.1737084 -0.15274435 0.100803226 0.24424744 -0.019260198 0.17169213
-0.18511328 -0.20860985 0.2891103 -0.26289895 -0.04309339 -0.092937656 -0.3158789 0.20679045
0.14050564 0.31485757 -0.06436765 -0.003872699 -0.011154331 -0.25836736 0.12509535 -0.020232823
0.22345278 0.14721203 -0.084405154 0.3370666 -0.04897934 -0.15035772 0.39348456 -0.13444161
-0.2512614 -0.1716291 0.09554419 -0.28648266 -0.037712663 -0.65599734 0.20966735 -0.051986285
-0.01761483 0.6049137 -0.10687801 -0.10137911 -0.20963015 -0.39736032 0.2363773 -0.047437128
-0.31016695 -0.48252222 -0.47107482 0.13785118 -0.26724252 0.28268686 -0.11861953 -0.40054384
-0.23193674 -0.017226107 0.047521368 0.2759366 0.10053975 0.07261199 -0.13727623 -0.119715996
-0.24857299 -0.46168056 -0.14617531 -0.43655258 -0.0694409 0.19005698 -0.043113135 0.16974753
0.3637619 -0.18621755 -0.50294274 0.0638242 0.021617541 -0.43006313 0.06062612 -0.4360864
-0.034336213 0.1635252 0.049313147 -0.27453563 0.37824902 0.21271059 -0.3184704 0.07731489
0.12882133 -0.05606144 0.04366442 -0.064357385 0.4537114 0.23863792 -0.5504485 0.5894501
0.63724935 -0.012787988 -0.25022733 0.32277966 -0.6279261 -0.7150904 0.17594524 -0.68155295
-0.58123416 0.17193154 -0.3756822 0.34234947 0.26871708 -0.24258901 -0.047928035 -0.0998349
-0.08747831 0.040929005 -0.16883123 -0.38870373 0.18779694 -0.5407506 0.45047557 -0.37431303
-0.092538625 -0.1638758 -0.2735732 0.16519815 -0.12573485 0.28729564 -0.18153004 -0.24240986
-0.18144085 0.1130372 -0.18490297 -0.03634334 0.06920107 0.22209245 0.31895614 -0.1812881
-0.027373489 0.36285546 -0.31332797 -0.519948 -0.3501268 -0.15513529 0.05578006 0.30069074
-0.13360846 -0.03820869 0.083123006 0.15942301 -0.13563082 -0.06981546 -0.4246591 0.33228832
-0.26937822 0.13369617 -0.313687 0.09215064 0.4748722 -0.40537545 -0.10295534 -0.3054309
-0.09128298 0.1286202 0.08833939 -0.66747445 -0.26379734 0.29763028 -0.23152153 0.53847754
0.45638108 -0.44931427 -0.25182804 -0.21275696 -0.29308915 -0.1737076 -0.041138854 -1.0962518
0.03466578 -0.22622861 0.078396246 -0.21349514 0.09600484 0.05449968 -0.23427722 -0.002136603
0.05308937 0.43550777 -0.022256851 -0.16533446 -0.08632997 0.092977315 -0.4014449 0.3550928
0.3443935 -0.20606978 -0.027382866 -0.25904885 -0.21934293 0.074547365 -0.10926083 -0.75110483
0.061710924 0.08681665 0.006374189 -0.081411555 0.2527819 0.0008940771 -0.20587993 0.06616994
0.050570235 -0.02811239 -0.0249562 0.030559832 0.40267187 -0.5996251 0.48168442 -0.08330695
00000000: 1015 d4be e834 153e 04a7 7dbe ccd1 043f
00000010: f892 ddbc 7e6a 773d 76c6 1a3d c083 80be
00000020: 9322 a8be b7cb d6bd f0f8 f1bd fcc9 103e
00000030: 684a 213d 882b 963d 16a8 5dbd 9aa6 503e
00000040: 0041 39be 0fb8 893c da26 693d 3241 833d
00000050: 8cdd debc 24a2 b93d e553 79be 6dcd 8e3e
00000060: e864 34be 9455 093e 5dc3 edbd 40b0 c1bd
00000070: a6e5 133e 56f0 cd3e a039 48bd 761e b73e
00000080: 73e0 9a3d 2668 5dbe 50d6 b7be 5307 023f
00000090: 6fc2 17be 4cab 2c3e 716b 82bd 6605 993c
000000a0: 2389 ebbc 163e 8abd 9de0 31be 0469 1cbe
000000b0: ec71 ce3d 001c 7a3e 90c7 9dbc 10d0 2f3e
000000c0: 568e 3dbe d29d 55be 4406 943e b19a 86be
000000d0: b282 30bd 1956 bebd e1ba a1be e0c0 533e
000000e0: b6e0 0f3e 0335 a13e 30d3 83bd 1ccd 7dbb
000000f0: a8c0 36bc ba48 84be ff18 003e 4ebf a5bc
00000100: ced0 643e c0be 163e 9cdc acbd fe93 ac3e
00000110: 8f9e 48bd 60f7 19be cf76 c93e 10ab 09be
00000120: 56a5 80be 8abf 2fbe acac c33d dbad 92be
00000130: 9878 1abd 71ef 27bf 0ab3 563e 92ef 54bd
00000140: fa4c 90bc a0db 1a3f dce2 dabd da9f cfbd
00000150: 49a9 56be d072 cbbe e40c 723e 6f4d 42bd
00000160: 34ce 9ebe 270d f7be b830 f1be dc28 0d3e
00000170: 03d4 88be 55bc 903e ccee f2bd 1514 cdbe
00000180: d380 6dbe c41d 8dbc c4a5 423d 9047 8d3e
00000190: c9e7 cd3d 98b5 943d 2492 0cbe a92d f5bd
000001a0: eb89 7ebe 6561 ecbe fbae 15be d283 dfbe
000001b0: 0837 8ebd 4c9e 423e 6697 30bd 4cd2 2d3e
000001c0: 003f ba3e d0af 3ebe dbc0 00bf 43b6 823d
000001d0: 4517 b13c 3c31 dcbe 1853 783d b746 dfbe
000001e0: 21a4 0cbd 2673 273e 95fc 493d ef8f 8cbe
000001f0: dba9 c13e ced0 593e 8d0e a3be 4557 9e3d
00000200: bde9 033e aea0 65bd 76d9 323d cecd 83bd
00000210: dc4c e83e 805d 743e 31ea 0cbf 34e6 163f
00000220: c622 233f b684 51bc cc1d 80be 6043 a53e
00000230: c4bf 20bf 2a10 37bf fd2a 343e 417a 2ebf
00000240: c3cb 14bf d20e 303e 6b59 c0be 6e48 af3e
00000250: 4995 893e 4169 78be 3050 44bd 3d76 ccbd
00000260: d427 b3bd 2ca5 273d 18e2 2cbe 2d04 c7be
00000270: d74d 403e a26e 0abf bca4 e63e f5a5 bfbe
00000280: e484 bdbd 0fcf 27be c911 8cbe b429 293e
00000290: a3c0 00be 6a18 933e 03e3 39be 4a3a 78be
000002a0: a1cb 39be 0c80 e73d 3457 3dbe c1dc 14bd
000002b0: 4ab9 8d3d 346c 633e 384e a33e 96a3 39be
000002c0: 5e3e e0bc 31c8 b93e 866c a0be 501b 05bf
000002d0: d243 b3be c9db 1ebe a279 643d 23f4 993e
000002e0: a8d0 08be b780 1cbd 653c aa3d c93f 233e
000002f0: cee2 0abe 68fb 8ebd eb6c d9be b221 aa3e
00000300: f1eb 89be a6e7 083e 959b a0be 7ab9 bc3d
00000310: 7322 f33e 5f8d cfbe 40da d2bd 7061 9cbe
00000320: 92f2 babd 04b5 033e 48eb b43d 9bdf 2abf
00000330: 7210 87be ff62 983e fb13 6dbe aad9 093f
00000340: c8aa e93e 850c e6be 9bef 80be f6dc 59be
00000350: c80f 96be 68e0 31be 3781 28bd fb51 8cbf
00000360: b4fd 0d3d 79a8 67be 368e a03d 789e 5abe
00000370: 309e c43d 0e3b 5f3d 5ee6 6fbe 4006 0cbb
00000380: 3d74 593d e0fa de3e 0054 b6bc 704d 29be
00000390: c4cd b0bd e46a be3d 308a cdbe b9ce b53e
000003a0: 5854 b03e f503 53be 0852 e0bc 0da2 84be
000003b0: 6f9b 60be 4aac 983d 24c4 dfbd 6848 40bf
000003c0: 98c4 7c3d eecc b13d 93de d03b 1abb a6bd
000003d0: a16c 813e 8060 6a3a 30d2 52be 1b84 873d
000003e0: bc22 4f3d f44b e6bc f270 ccbc 9d58 fa3c
000003f0: 022b ce3e 0881 19bf 579f f63e d69c aabd

obs_std f4 [41]
0.022638805 0.09318018 0.12155172 0.019079482 1.1996535 1.4400482 1.2407382 0.28191483
0.22039743 0.27485296 0.29293445 0.27603847 0.2784472 0.28160533 0.22131272 0.2734651
0.2924874 0.27247345 0.27607062 3.1549344 3.1932516 6.1096625 5.2584167 6.8719387
4.902709 3.1616619 3.2013366 6.0951886 5.296781 6.8904977 4.9023566 0.6668073
0.7448101 0.21368147 0.26147982 0.2659424 0.20446494 0.1997546 0.2048292 0.31523952
0.37604946
00000000: 0475 b93c 40d5 be3d 1cf0 f83d 934c 9c3c
00000010: 3f8e 993f 8053 b83f 82d0 9e3f 2457 903e
00000020: ddaf 613e 87b9 8c3e 81fb 953e ea54 8d3e
00000030: a290 8e3e 932e 903e cd9f 623e 9e03 8c3e
00000040: e9c0 953e a481 8b3e 2159 8d3e 72ea 4940
00000050: 3c5e 4c40 5b82 c340 f344 a840 ece6 db40
00000060: fee2 9c40 ab58 4a40 b3e2 4c40 c90b c340
00000070: 3b7f a940 f57e dc40 1be0 9c40 e2b3 2a3f
00000080: e0ab 3e3f 51cf 5a3e afe0 853e 9a29 883e
00000090: 425f 513e 788c 4c3e bfbe 513e 1367 a13e
000000a0: 8e89 c03e

obs_mean f4 [41]
0.9877487 -0.0027961868 -0.003292551 -0.00017493257 -0.01032574 -0.14429325 0.00471449 -0.5900662
-0.04982632 0.0078036916 1.0478507 0.024543256 -0.4527534 -0.59990627 0.061985627 -0.012355851
1.0518779 -0.020921843 -0.44565967 -0.20199361 0.04609759 0.092969365 0.64537734 0.04410558
-0.08052494 -0.22923304 -0.008136583 -0.09983796 0.6465337 -0.021856546 -0.036165062 0.01935394
0.015855951 0.09698892 0.18513869 0.0055910964 0.0002284286 -0.6844303 -0.68540883 -0.00044739217
-0.0036025376
00000000: 19dd 7c3f 3b40 37bb d7c7 57bb 1b6e 37b9
00000010: 4b2d 29bc 9cc1 13be 027c 9a3b 940e 17bf
00000020: af16 4cbd 1cb6 ff3b f91f 863f f00e c93c
00000030: 4bcf e7be 7593 19bf a4e4 7d3d 3270 4abc
00000040: efa3 863f 4964 abbc 812d e4be 6ad7 4ebe
00000050: d4d0 3c3d b966 be3d 7337 253f 0da8 343d
00000060: 42ea a4bd 11bc 6abe 4d4f 05bc d877 ccbd
00000070: 3c83 253f 800c b3bc d121 14bd 278c 9e3c
00000080: 57e4 813c 20a2 c63d ff94 3d3e 8435 b73b
00000090: 5686 6f39 d336 2fbf f476 2fbf f68f eab9
000000a0: 8d18 6cbb
