trained/jvrc_stepper/critic.pt (torch, 311431 bytes, 7 tensors)

weight f4 [256, 41]
00000000: 78e9 71be 40d1 c03f 0a02 693f 06e4 dc3d
00000010: b664 b2bc c470 0f3e 9b8d adbd 0bd9 7abe
00000020: 397d e2be f430 a73e 33d9 15bc 53d8 c8bd
00000030: 7811 6b3e b788 cb3e 4f7e 2dbd 2a57 9bbe
00000040: 7a8b 253e b2bf 44be a061 7e3d 49d1 003e
00000050: c9be b2bb 0815 633b cad2 9c3c 6c18 adbb
00000060: 435e e039 0c8e a4bb e5ff 07bc 6588 68bc
00000070: 1e7b c93c 37cf 1c3c 341e dbba 35b7 11be
00000080: f011 933e f600 513e 84db 013f 7b84 643e
00000090: b37f 313e 6dbb 7b3e 3440 9dbf 76b2 f93e
000000a0: 0de3 08bf 3548 85bd 0991 9bbe 76bb 43bf
000000b0: 5158 993e 8a4b 50be a57e b13c 7b7d e03c
000000c0: d9ba 8fbe 451e 2f3f fba9 5dbf 05b2 34be
000000d0: e052 07bf ee02 11bf 7be3 4a3d 9e07 0dbf
000000e0: b71f f93e 94a2 783d eb33 593e a511 153f
000000f0: 9548 cabc d9de d4bd d68b 353d ec4d 993c
00000100: 2135 233a 3e25 70bc 8bd4 503d 28ab 58bc
00000110: 4ce3 a53b 5753 a83c 6361 d43b 4eba 97bb
00000120: bacc f6bd ecad 053e efce d1bf a282 373f
00000130: d1bd b0bf 13fe 9d3f 2ea8 9abd b772 7e3e
00000140: a00a 543d 3917 263f 0c1b 36be fc2a b4bf
00000150: c818 aebf 9a89 d1bd 210c 913d 2386 313e
00000160: e594 0dbe 5e5d 053f bbeb b43e 4597 483e
00000170: edf6 bb3a ef0b 49be ac84 013f 4a8a cbbe
00000180: 2f46 6fbd 5bcd 91bf 59cf cfbe c967 c23e
00000190: 854b c1bf 0f21 ad3d 30d2 f1bc 6c22 37bc
000001a0: 9220 dc3c aae2 173b c1eb 45bc 22d9 2abd
000001b0: 5375 133d c819 97bd f6a5 81bb 4d1b ac3c
000001c0: 7b95 d4bb eb2a 2e3f 3eea ca3e 0c59 fb3d
000001d0: 4fd7 633f 15a1 d7bd 919e b0bf aa0d 8f3c
000001e0: 25af 0f3f 7c14 453f a94e d03e 6d4d 21be
000001f0: fdd9 cc40 8443 36c0 002f 04bf e739 5d3e
00000200: 9cd0 07be e831 0f3d 40e9 a9bf 17a9 a63f
00000210: a0be 30bf 4590 0ebf 2253 5bbd 835a 093e
00000220: c575 1e3f 2cf5 8c3f c060 17bf 8410 993e
00000230: b216 85bd 0ffa 703d 2a3d 1abb 6873 8c3d
00000240: 02e7 44bd c027 abbc dc02 0c3c a0fa 92b9
00000250: bd03 39bd 4b12 cb3c 862a 3abc a273 4e3c
00000260: be3d 48bb 15ef 35bc df66 103e 0bfc 50bd
00000270: 96a1 cf3c 724a ba3c 04e8 0abd 46c7 51be
00000280: 87a4 fcbd 30d3 8dbe 8356 adbd 77dd 6ebe
00000290: 04bb bf3d 9372 4f3f 6c9f 0e40 06c1 593c
000002a0: c547 aebd d1f3 2e3e 0b6d bbbc 4d06 853f
000002b0: 7d06 4fbf de54 003f 76b3 163f 0f6b 8ebe
000002c0: 1fa2 183f 38d0 20be 7a15 0dbf 33d9 b83e
000002d0: 2a5a f0bd 3cdb d8bd f10e 23be 3109 913d
000002e0: 1a38 cebb 011c 11bd 42ca aa3d 2a87 c73b
000002f0: 0c03 cc3b 0c7b c23d 6a49 aebd d7ab ea3c
00000300: e024 293d 539f e9bb 58f0 70bc 4741 ef3c
00000310: 220b c4be 9e13 e6bd b2fb c23c 5616 fdbd
00000320: 0791 a6be fb4d aa3d e60d e4be f8d0 493e
00000330: 3120 eabe b2a5 7b3c 9de8 613f 9c7c 3dc0
00000340: 1e7d 35bf fafb 8bbd 1132 c6bb 397f 98bd
00000350: 9009 15bf 0c85 183d 941b c53c 2920 d9be
00000360: 3010 163e 817f b6be c4a3 33bf c186 34bf
00000370: 64f1 cf3e 605d efbe 9b2b 8abd 39e1 f5be
00000380: 5030 173c 1218 4fbb b1e8 d8b9 ad43 d03c
00000390: 8131 8abc 95c0 b83c c8f7 3abd 1210 a2bb
000003a0: 8d8c fc3b 0387 9ebd 5cd0 4f3b 4fe8 8c3c
000003b0: 75b0 8bbc ae71 fe3c 2227 eabe 0ec6 013f
000003c0: 2cad e23e 8e54 323f b852 b8bd b665 3ebd
000003d0: b5cf fe3d e7f8 51be da5d 95bd 0094 b93e
000003e0: e283 f9bf 0f59 1abf 699a 6b3d 571b dabc
000003f0: 4bc1 b63d 6c6b babe 0e1f ffbc 0639 923e
-0.23624218 1.5063858 0.91018736 0.107856795 -0.021776538 0.1400786 -0.08474275 -0.24496858
-0.44236162 0.32654536 -0.009146023 -0.098068856 0.22955883 0.39752743 -0.042356785 -0.30339938
0.16166487 -0.19213751 0.06210482 0.12579836 -0.0054548723 0.0034649987 0.01914348 -0.0052824523
0.0004279484 -0.005021816 -0.008300756 -0.014192675 0.02459484 0.009570888 -0.0016717375 -0.14230044
0.28724623 0.20410523 0.5072558 0.22316162 0.1733387 0.24583216 -1.2285218 0.48768967
-0.5347145 -0.06507913 -0.3038409 -0.7645792 0.29950193 -0.20341316 0.021666834 0.027403584
-0.2807224 0.6840556 -0.86587495 -0.17646034 -0.5286083 -0.56645095 0.04953335 -0.5508975
0.4865701 0.06070192 0.21211211 0.5823005 -0.024692813 -0.10394067 0.04432281 0.018713914
0.00062258734 -0.014657317 0.050983947 -0.013224401 0.0050624963 0.020547552 0.006481336 -0.0046303635
-0.12050767 0.13054627 -1.6391276 0.71683705 -1.3807927 1.2343162 -0.07551609 0.24848448
0.051767945 0.64879185 -0.17783755 -1.4075618 -1.3601313 -0.102313235 0.070823915 0.17336325
-0.1382633 0.5209559 0.35336098 0.19588955 0.0014340557 -0.19633459 0.50593066 -0.39753944
-0.05841654 -1.1390795 -0.4058788 0.37969807 -1.5101172 0.08453571 -0.02951917 -0.01117764
0.026871 0.0023175874 -0.012080134 -0.04171098 0.03600056 -0.07377964 -0.0039565517 0.021009112
-0.006487546 0.6803424 0.39631838 0.12272844 0.8900041 -0.10528771 -1.3798391 0.01746257
0.56126624 0.7698438 0.40685013 -0.15752192 6.40161 -2.8478708 -0.51634216 0.21604119
-0.13263172 0.034959704 -1.3274307 1.3020352 -0.6904087 -0.5568889 -0.05354608 0.13413434
0.6189845 1.101232 -0.59132004 0.29895413 -0.064984694 0.058832224 -0.0023534992 0.068579495
-0.04807187 -0.020892978 0.008545604 -0.0002803402 -0.04516958 0.024788996 -0.011362677 0.012600811
-0.003055438 -0.011104365 0.14101742 -0.051021617 0.025345605 0.022740576 -0.033912674 -0.20486173
-0.123360686 -0.27700186 -0.084637664 -0.2332667 0.09361842 0.810342 2.2284803 0.013290649
-0.08509783 0.17085196 -0.022879144 1.0392548 -0.80869275 0.501295 0.58867586 -0.27816054
0.5962238 -0.15704429 -0.55110896 0.3610321 -0.117359474 -0.10588691 -0.15923668 0.07081831
-0.006293309 -0.035427097 0.08339359 0.006089111 0.006225949 0.094961256 -0.08510096 0.028646393
0.041294932 -0.0071295886 -0.01470574 0.029205931 -0.38289744 -0.112342104 0.023801658 -0.12357776
-0.32532522 0.08315655 -0.44541854 0.19708622 -0.45727685 0.015359329 0.88245565 -2.9607306
-0.7089404 -0.0683517 -0.006048449 -0.07446141 -0.58217716 0.03723626 0.024061002 -0.4240735
0.14654613 -0.35644153 -0.7017176 -0.7051812 0.40613854 -0.46750927 -0.06746598 -0.48023394
0.009227827 -0.003160004 -0.000413721 0.025422895 -0.016869308 0.022552768 -0.04564646 -0.0049457634
0.0077071846 -0.07740595 0.0031709885 0.017200617 -0.017051915 0.031060066 -0.4573298 0.5069283
0.44272745 0.6966027 -0.09000152 -0.046483718 0.12441961 -0.20505105 -0.072932914 0.36245728
-1.9493372 -0.6029214 0.057520304 -0.026624365 0.089235865 -0.3641008 -0.031142738 0.2855913

bias f4 [256]
00000000: d73a c2be fafa cebd 84b7 6ebe 9a8c f9bb
00000010: 9d08 a6bc a17b 8fbc f4d0 db3d bc86 d8be
00000020: 9192 cbbc e8cc bb3d 56db 973e 63fb 96be
00000030: 5acc 023e 8d65 92be d4e5 a53d 0346 dbbe
00000040: 43e5 9fbd c5b6 9abe 378d 98bc 82ac 223c
00000050: ea0b 763e 91c1 3fbe 83df 733e 9de5 6e3e
00000060: 8d54 93be 521b 883d f2c3 b2bd 618d 21bd
00000070: cd23 43be 2e3f f83d 290e d33d 0ce0 6fbe
00000080: bb9b ff3d 76c7 7ebc 9dd0 17be da32 dc3d
00000090: a2fc c7bd ce10 6fbe 15d2 00be 56f9 f0bd
000000a0: a039 7cbe 9dfa 0e3e 69e6 a2be 8bde 4dbb
000000b0: 620b a2be 1125 2b3e 740d 543e 755f 873e
000000c0: 6c74 b93d 5fc4 edbd 6945 553e ba77 2c3e
000000d0: 73eb 8c3e d1b9 8ebd 4df4 223e f48b 3abe
000000e0: e8a4 893e 82c9 24be 676d 123e c883 4dbe
000000f0: 0b54 02bc f212 d23e 4d04 aa3e 1796 b4bd
00000100: b6d2 6e3d 3ca0 1fbd 11fa 53be 0fa2 053e
00000110: 8655 343d d666 db3d 3fdf 60be 3d77 a1be
00000120: 5fd6 aebe 9bee 7a3d 124f 583e 5143 db3b
00000130: 3f1a 9cbe 90d0 843e 25bd 61be 413c 87bd
00000140: d9d8 443e b997 b83d d5b5 2fbd bbee c4be
00000150: 3768 bc3d 82a6 a5bd 9ec7 d8bd 6030 afbd
00000160: 9365 13bd bbf4 4b3e 8f72 09bd 7d4a bd3e
00000170: be90 0ebd 6487 773e ee82 b63d 1f52 c7bd
00000180: 105d 3bbe fedd 843e b067 40be a42d 83be
00000190: de48 9fbe cb12 f4bd 3006 d43d 015f 873d
000001a0: d141 13be 370d 1d3d b654 b93d dde2 0dbd
000001b0: 4514 243d 857c 013e 072c bd3d 9dec 5a3e
000001c0: 5343 66be b163 193d 3204 693e e9f9 96be
000001d0: 788c f2bd 20d1 e13d 11bd 5f3d e474 333d
000001e0: 0e1e 373e fb4a 6f3e 28a7 fabd f69c 45be
000001f0: 781c 3b3e 4eb5 f9bc a61e 6b3e 9ce5 9a3e
00000200: 7666 c3bd 04d1 913e 3130 86be 3107 43be
00000210: 01ad 66be 9963 42be 5c6a 943e 3617 1a3d
00000220: 9622 b2be 90d1 8abe 27b4 20be d92a 4d3e
00000230: 7b75 ce3d 9a35 c1bd d230 69be c793 b13d
00000240: 28ab 443e 048a 5dbe dd7d e13e c704 c23d
00000250: 913a 153d 142c abbe 7ff4 94be 2da1 973d
00000260: 62d0 93bd 2c0d 85be 0e23 953e 2ace ef3e
00000270: 6eb2 833d dfe3 4e3e 2241 3fbe cb6a 9fbe
00000280: 5126 a4be df70 183f 36d8 1d3e 4253 59be
00000290: f41a b13e e6b6 3dbe f82d 7bbe 6053 cb3d
000002a0: cf74 a1be 48de 9b3e 96dc 49be 44d7 313f
000002b0: ac66 2fbe d788 abbd 17f2 01bf 9429 b13e
000002c0: 9600 403e 00e3 7fbe 4de3 643d ef43 43bd
000002d0: 6dc3 02be bfcb 413d 1e83 de3d 1b9c bcbe
000002e0: 355c ecbe 8e45 803c ae5e 7ebe a04b 61be
000002f0: b740 c53d c2a6 f83d 32ca c5bc d1ae 463e
00000300: d2ff 943e 6e22 00be 6465 95be d632 27bd
00000310: 3ef4 6c3e 7f3e b83e f3b9 88bd f324 b43d
00000320: e7ba 68be 09b1 85bd c767 d0bc 7365 ddbd
00000330: b910 a6bd 24f6 37be 3f25 403e d9db edbd
00000340: 7b58 49be 3602 13be 5392 a83d 9b22 31bd
00000350: d562 d7bd 8b0c 59bb b46c 013f 6571 aabc
00000360: 21bc 193d d2d4 103e bcdd 8ebe aea3 81be
00000370: 41cf 933d 5088 b03d dd79 e13d 4765 e7bc
00000380: bc3b df3c 76ca 99bd ac59 153e c946 afbd
00000390: 5939 29be 8283 04bf c138 f0be 3752 9e3d
000003a0: 1e88 ecbd f608 bb3d 9741 a73e e687 ab3c
000003b0: 02f7 503e dfd9 8e3c fb59 d4bb 085e 4e3e
000003c0: b789 e6bd efbe ce3e 5cbd b9be f7fa b0bd
000003d0: b8dd 6c3e 85d0 e13e 7e27 aabd 5b99 4bbe
000003e0: 10d7 683e d2ce 91be 0c90 ee3c 229d a43b
000003f0: 7036 103e 89e2 b5bd 3880 20be 1c9b 42be
-0.37935516 -0.10106464 -0.23312193 -0.007615638 -0.020267779 -0.017515006 0.10733214 -0.42290294
-0.024850162 0.09169942 0.29659528 -0.29488668 0.12773266 -0.28593102 0.08100477 -0.42826852
-0.078074 -0.30217567 -0.018622024 0.009928824 0.24027982 -0.18726183 0.23815732 0.23329778
-0.28775445 0.06645836 -0.0872878 -0.03944147 -0.19056626 0.121214256 0.10305435 -0.23425311
0.12480875 -0.015550485 -0.14825673 0.10751887 -0.09764983 -0.23346254 -0.1258014 -0.11766307
-0.24631357 0.13962789 -0.31816414 -0.0031413164 -0.3164931 0.16713358 0.20708257 0.26440015
0.09055409 -0.116097204 0.20827259 0.16842547 0.27523383 -0.069690354 0.15913506 -0.1821745
0.26883626 -0.16092494 0.14299546 -0.20069802 -0.007954608 0.4103008 0.33206406 -0.0881769
0.05830642 -0.03897117 -0.20700862 0.13050102 0.044026874 0.10712974 -0.21960162 -0.31536284
-0.34147927 0.06126271 0.21123913 0.0066913744 -0.30488774 0.2594037 -0.22044809 -0.066032894
0.19223346 0.09013314 -0.042898018 -0.38463387 0.09199565 -0.080883995 -0.10584949 -0.08554149
-0.03598554 0.19917576 -0.033556517 0.36970893 -0.034806006 0.24172741 0.089116916 -0.0973246
-0.1829722 0.25950617 -0.18789554 -0.2562076 -0.3111028 -0.11917647 0.10352743 0.066099174
-0.14380576 0.03834268 0.090493605 -0.03464018 0.040058393 0.12645157 0.09236913 0.21379323
-0.2248662 0.03744859 0.22755507 -0.2948754 -0.118431985 0.110262156 0.054623667 0.043812647
0.17882559 0.23368447 -0.12238914 -0.19298157 0.18272579 -0.03048196 0.2296091 0.30253303
-0.09541027 0.2847978 -0.26208642 -0.19045712 -0.22526933 -0.18983306 0.28987396 0.037619792
-0.34792012 -0.27113008 -0.15693723 0.20035876 0.10081001 -0.09434052 -0.2277253 0.086707644
0.19205916 -0.2163468 0.4404134 0.094735675 0.036432806 -0.33432066 -0.29092786 0.07403789
-0.0721748 -0.25986612 0.29128307 0.46836978 0.06430517 0.20204113 -0.1867719 -0.31136164
-0.32060483 0.5954723 0.15414509 -0.21223167 0.34590876 -0.18526801 -0.24529254 0.09928012
-0.3153443 0.30443025 -0.19713053 0.69469094 -0.1712901 -0.083757095 -0.50760025 0.34602034
0.18750224 -0.24988937 0.055880833 -0.04767221 -0.12769862 0.047313448 0.10864852 -0.3683785
-0.46164098 0.015658166 -0.24840805 -0.22001505 0.09631484 0.121411815 -0.024144266 0.19402625
0.29101425 -0.12513134 -0.29178917 -0.040819965 0.23140046 0.3598518 -0.06676092 0.0879611
-0.22727548 -0.065279074 -0.02544011 -0.108103655 -0.08108658 -0.17964989 0.18764208 -0.11614198
-0.19662659 -0.14356312 0.08231034 -0.043245893 -0.105168976 -0.0033119048 0.5055649 -0.020806024
0.03753293 0.14143685 -0.27903545 -0.2532019 0.07217265 0.086197495 0.11009572 -0.028246535
0.027250163 -0.075093195 0.14584988 -0.08558423 -0.16525783 -0.51763165 -0.469183 0.07730525
-0.115494 0.091325685 0.3266723 0.020938825 0.20406726 0.017437873 -0.006480453 0.20153058
-0.11256736 0.40380046 -0.36277282 -0.08641618 0.23131454 0.441044 -0.08308314 -0.19882719
0.2273829 -0.28478104 0.029121421 0.0050236145 0.14083266 -0.08881099 -0.15673912 -0.19004482

weight f4 [256, 256]
00000000: 29dd b13d 18a7 a73d ae38 483e 0b3c 893e
00000010: 2240 80be 8c10 973e 1768 583e 523a 02be
00000020: e366 ad3d b258 b93e 0af0 d5bc dd2c 7f3e
00000030: 4685 22bf cbd8 c63e 9139 833e b0f4 1dbf
00000040: 5f7f 973d 1a66 4ebd eb8a ff3d 0f4c 623e
00000050: 56fc e0bd 637a 753e d8dd 6fbd fe80 e53e
00000060: 0526 463e 4260 bfbd 8de4 c73e a634 5bbf
00000070: e131 943e 6e20 08bf a0ef 7dbe f633 423e
00000080: fdd1 153e 7878 363e 88cb cdbe 576f b73e
00000090: d549 e9bb c640 5abe 956c 0a3e dd4f b3be
000000a0: 0a94 a8be 5aac b9bd 05c3 e6bd 18b9 853e
000000b0: bb13 ae3d a849 833e 72d5 86bd 3e1c dabd
000000c0: 73d6 5f3e 96ce e13d 2b99 723e 8275 28bd
000000d0: 1a8e 663c c391 51be 7719 a3be b3ca fcbd
000000e0: a688 5cbe e054 31bd 8814 05bf 5f12 ffbd
000000f0: dff0 66bf c1b2 7abc 2e1c 57be 557d 07bf
00000100: ac93 bebd 4385 a13e 27de 21be 5034 2dbe
00000110: 4945 b13e f2db c13c 0e3d 5cbe 5a7e 453e
00000120: f1d1 1ebe ee6c e6bd 6c78 33bd db5e fabe
00000130: 347d 86be 4dac 9e3e 16ec d63e 1386 c73d
00000140: 46fd 433e ceef 863e b161 54be f034 cdbe
00000150: 0c06 5a3e d8f3 3cbe 0dfb a8be ae09 a03e
00000160: a410 28be c871 9b3e f488 633e 648d c43e
00000170: 1d57 363d 863d a7be 3e20 993e 2f3e fc3e
00000180: 7390 0ebd 7f9c 133e 0998 16be 8ff4 07bf
00000190: 31a3 07bf 67c9 62be ca83 4d3e d102 463e
000001a0: a6a9 f43e 4120 babe 51f4 5dbc 49de 0dbe
000001b0: c146 953c 13e9 28be e154 013d ecac 533c
000001c0: 3b90 003e ee82 7abe 796e 823c 3e8f 8abd
000001d0: bf04 60be b388 123e a1bf 0ebe 0a92 ae3e
000001e0: 3527 d9bc 5e4b 50be 68f9 b73e 1dd1 45bd
000001f0: 6edc 783e dfdc 46be e2ed 32be 4406 02be
00000200: 1c21 efbe 7f34 053c 80f5 b43e 5454 fb3d
00000210: 52d2 42be 676a 793e 83d3 a43e 90b9 e1bd
00000220: 04f0 b13e ba68 a33e 55d6 d93e 62b1 b8be
00000230: 7335 bbbd db85 c73e 6344 08bf b037 e43c
00000240: 4636 c93e e1a4 1cbe 076d 93bd c2ac db3e
00000250: 2979 b93e c1a1 823e d92a 973e 919d 933d
00000260: df7a d1be 72cb 33be 4933 b53d a1ae 2d3e
00000270: f824 d5be f32e c43d c5ee 22be e962 bb3e
00000280: 3f63 4bbe d24f a0be 7060 3ebd 54a3 d4bd
00000290: eda3 953d d3f2 953e d90e 9abe fbfe c63d
000002a0: f56a 943d 00c3 6a3d c2d5 be3e 78ab d23d
000002b0: 28de a03e 433c 88bd caf0 f8bd 53f7 613e
000002c0: cad5 2ebe d3b2 77be 5010 b93e 51ff b83e
000002d0: 39a1 e8bd b6d5 5bbc cd4b d4be eede e1be
000002e0: 2b35 c5be c89e bc3e 409a 59be 9ceb c8bd
000002f0: 21a2 73bd a6b0 1dbf 800a 273c d6be 3d3e
00000300: 3fb0 aabd 1ee3 203e 57b7 8abe eceb 17bc
00000310: 9d69 ee3e 97de b1be 8ee3 27bc 1ac7 d7be
00000320: fbfa 9bbe 3e70 3a3e 37e9 46ba 870b 35bf
00000330: b7c0 d43d e8ad f6be 999e 833e 2ff7 923e
00000340: 5eef e9be ddcd 97be 450b d1bd 9483 acbe
00000350: ae17 88be ac34 973c fdbc 973e d9d6 6a3e
00000360: 1834 10bf bfff af3e ad16 a2bc 46f8 0bbf
00000370: f808 52bb d9fa 683e 88f1 913e 4e61 893e
00000380: 7c88 e23d e8c2 e3be 4847 e53d 7e4f 95bc
00000390: e85d 423e e5b4 aabe b257 343e a669 193e
000003a0: 24da 4cbd ee59 dc3e 8a10 76bd f25b 103f
000003b0: 1465 8d3e a72c 193f 726f 63be 4307 0abe
000003c0: 7794 75be a43b c63c 73cc 43be 5d75 7bbd
000003d0: 7ab2 a4be c162 84be 288c 893e 2b96 df3c
000003e0: 54de 3dbd c386 523d ac90 79be 7aa0 76bc
000003f0: f5a7 acbd 11f3 3c3e 3179 59be 9073 c43e
0.08684761 0.081861675 0.19552872 0.26803622 -0.2504893 0.29504812 0.21133457 -0.1271756
0.0846689 0.36200482 -0.026115436 0.24919458 -0.6348461 0.38837275 0.25629857 -0.6170149
0.07397341 -0.05039034 0.124776684 0.22099327 -0.10985629 0.23972468 -0.058561176 0.44824976
0.19350441 -0.093445316 0.39041558 -0.8562721 0.28944305 -0.53174484 -0.24798441 0.18965134
0.14630885 0.17819393 -0.40194345 0.35827133 -0.007119397 -0.21313772 0.13517983 -0.35021868
-0.32925445 -0.090660766 -0.11267666 0.26117778 0.08499857 0.25642133 -0.0658368 -0.10649918
0.2185915 0.11025731 0.23691241 -0.04112769 0.014071966 -0.2046576 -0.31855366 -0.12343349
-0.21536502 -0.043293834 -0.51984453 -0.12454676 -0.9021129 -0.015301407 -0.21006843 -0.52925617
-0.0930551 0.31546983 -0.158074 -0.16914487 0.34623173 0.023664448 -0.21507666 0.1928648
-0.15509774 -0.112512454 -0.043816015 -0.48900494 -0.26267397 0.3099083 0.41976994 0.097423695
0.19139585 0.2635483 -0.20740391 -0.4007945 0.21291369 -0.18452394 -0.33004037 0.31257385
-0.16412598 0.30360246 0.22220212 0.38389122 0.04451667 -0.32664126 0.2990741 0.49266192
-0.034805726 0.14415167 -0.14706434 -0.5310754 -0.52983385 -0.22147141 0.20069805 0.19337012
0.4778568 -0.36352733 -0.013547019 -0.13854326 0.018222215 -0.16495161 0.031575087 0.012919646
0.1255502 -0.24464008 0.015921818 -0.067656025 -0.2187681 0.14309959 -0.13940288 0.34095794
-0.026507953 -0.2034125 0.3593247 -0.04829513 0.24302837 -0.19420193 -0.17473558 -0.12697703
-0.46704948 0.008130192 0.35343552 0.12271944 -0.19025543 0.24356996 0.3219262 -0.11021721
0.3475343 0.31915838 0.42546335 -0.36072832 -0.09141054 0.3896931 -0.5322935 0.027858585
0.3929922 -0.15297271 -0.0719853 0.4290524 0.3622525 0.25514033 0.29524878 0.07207788
-0.40914056 -0.17558077 0.088476725 0.16961147 -0.41629767 0.09579267 -0.15911396 0.365989
-0.19862078 -0.31310898 -0.04647869 -0.10382715 0.07306657 0.29286823 -0.30089453 0.097166024
0.07246963 0.057314873 0.3727246 0.10286611 0.31419492 -0.06652119 -0.12155302 0.22067003
-0.17073742 -0.2418931 0.36145258 0.3613229 -0.11358876 -0.013417652 -0.4146408 -0.44115394
-0.38517126 0.3683989 -0.21250248 -0.09810564 -0.05948079 -0.6159767 0.0101953745 0.1852983
-0.083343975 0.15711638 -0.27093002 -0.009272557 0.46564952 -0.34740135 -0.010247124 -0.4214409
-0.3046492 0.1820688 -0.00075878523 -0.70720714 0.1038832 -0.48179555 0.25706938 0.2870421
-0.45690435 -0.2964925 -0.102072276 -0.33694136 -0.26580566 0.018457733 0.29636374 0.2293352
-0.5632949 0.34374806 -0.019786203 -0.5467571 -0.0032048803 0.22751941 0.28504586 0.2683205
0.110611886 -0.4448464 0.111952364 -0.018226381 0.18981135 -0.33341137 0.17611578 0.14981708
-0.050012723 0.4303736 -0.060074367 0.563903 0.2761618 0.5983376 -0.22210482 -0.13479333
-0.23982416 0.02419836 -0.1912096 -0.061391223 -0.32167417 -0.25856593 0.26864743 0.027293285
-0.046354607 0.05139805 -0.24371594 -0.015052909 -0.08430473 0.18452097 -0.21237637 0.38369417

bias f4 [256]
00000000: 5776 753f f95b 303f 4eaa 3e3f 1614 5b3f
00000010: 4657 1fbf ba6e 18bf 1e2c acbe 0dcc 23bf
00000020: c485 013f 2a90 0cbf 3f91 28bf 22ff a73c
00000030: b73c 723f 5364 793f f267 4d3f 89ea 483f
00000040: 9563 603f 6b9a 6a3f e893 1bbe ddb1 813f
00000050: de3e 10bf 62d0 433f 21ec 02be cea5 22bd
00000060: bd68 5b3f 5af9 bbbe 2b85 093f 3155 2b3f
00000070: 581f 50be 6601 7f3f 9eff 69be 298d 593f
00000080: 88d0 1abf 6dd6 293f 2bb2 09bf 8811 8fbe
00000090: e2ef 3a3f 4a33 1ebf cd3f 653f 8d44 da3e
000000a0: 80c7 2c3f 345b c53e 1adc a53d 3ad5 27be
000000b0: 1477 293f e859 f73e cc78 ffbe 677f 1abf
000000c0: 8c1e d83e b9ac 453f a848 34be b731 7f3f
000000d0: 314f 02be 1f5f 03bf fda3 13bf f1a5 8ebe
000000e0: 9a0c 2d3f 8b12 bbbe 95bb 2f3f 75fa 07bf
000000f0: e1b1 3c3f d9e4 e3be f61a 113f 6218 cdbd
00000100: 696a 1b3f 1f2f 2e3f 0415 d13e a318 2d3f
00000110: adcb 13bf abd0 acbe d599 00bf 73e5 ffbd
00000120: 30d2 1ebf 6adf e63e d77c 453e 180e 1f3e
00000130: dbab f03d 20c2 25bf f006 d7be 1223 3e3f
00000140: 6fca 14be 5081 523f 2c40 493f 194e 233f
00000150: ba62 2b3f ded1 073f fcbc 1dbf d003 503f
00000160: 0053 233f 13ac c7be 5af4 4dbc 9585 b8bd
00000170: d764 303f 3b7a 3c3f 86b5 243e d98a 1dbf
00000180: 2937 743f 7d49 5e3f f0f4 553f 974f eebe
00000190: fd8f 89be 49ac 543f 1195 033f ae8a 3abe
000001a0: cb27 0b3f 05dc 2abf 1c3f 76bd 5ec0 123e
000001b0: 750a 293f da58 b5bd d2fe 853d bff2 9bbe
000001c0: b42d 273f 4061 0ebf 4713 2f3f 3700 133f
000001d0: f53c 773f 999d 1dbf 46b2 283f 953e 333f
000001e0: 70fc ce3e 72e2 5b3d 35ca 873b e2fb fa3d
000001f0: 1e50 08be 95fe 3abe 35bd c0be 1db1 553f
00000200: d9af ccbe 1bbc 87be 7d7e 78bd 7ba8 7d3f
00000210: 107e 2f3f 6d7c 90bd 9096 4a3f 8ae6 97bd
00000220: 7009 0e3f ce0c 523f 618e bd3e c75f 2fbe
00000230: fe8a 763f bb0c 833f 628f 21be f4f3 843f
00000240: ecd5 793f a15f f1be 6727 3f3f c17a 7d3f
00000250: f3d2 09bd bb85 a4bd 2d03 bfbe 3046 13bf
00000260: 3d08 573f 07a3 1dbf ffdb 5e3f 4077 1bbf
00000270: 926c 2d3f 91f7 5c3f 4fbd bf3d cab6 85be
00000280: 6a0c 0cbf 454f 20be 32a4 26bf e7a8 083f
00000290: ecb2 fe3e b643 b03d cd5b 0d3f 5851 18bf
000002a0: 5522 6f3f 4e96 503f 48a7 c9be 8935 523f
000002b0: 45a2 20bf aea4 223f 3bdc 4c3f 1f5f 7f3f
000002c0: 7da7 3d3f 3617 073f 07c1 22be 649a 2cbf
000002d0: c872 493f 2570 ac3e af79 0fbf 599f 11be
000002e0: c342 233a aa5b 423f 03fc af3d 50fe 15bf
000002f0: 0485 3f3f b968 283f 62ca 393f c852 dfbe
00000300: f659 7e3f 33f8 cfbd 55a1 fc3e 73d7 1f3f
00000310: 7461 763f a64c 1dbf 29aa 423f f0f7 513f
00000320: 4d2c f23e 6c32 2f3f 6a52 10bf a794 2abf
00000330: b7f7 bb3d a121 19bf 6483 5c3f a1c8 4fbc
00000340: 0114 553f cc89 473f 8a5c 2c3f 89fe 1d3f
00000350: 3b1e f13d 6a58 163f c543 19bd de30 7f3f
00000360: d89c 0d3f b96f 05be 2fa1 133f a0f2 1ebd
00000370: d6e9 523f 1b36 99bd 27e1 04bf 57ba 1b3f
00000380: 2841 543f 6e32 f5be 25ab 503f f093 19bf
00000390: 7f2f 773f ebd7 a13e 722f 1e3f 82ff 2cbf
000003a0: 882b 06bf cbc4 febd 430e 573f aa0e 253f
000003b0: 589e 783f 1c47 1dbf fba3 353d b1fb 23bd
000003c0: 46e8 1abf c7d0 04bf 0433 1a3f 2e2f ce3e
000003d0: e566 cabd e200 2e3f 1425 f8be aef9 5c3f
000003e0: 037c 96be c991 d3be f932 01be 543d 313f
000003f0: bb9f 1cbf 037c 293f e6ba 213f 1ff0 6c3f
0.958837 0.6889034 0.74478614 0.85577524 -0.62242544 -0.59543955 -0.3362741 -0.6398323
0.50594735 -0.54907477 -0.6584663 0.020507399 0.94623893 0.9741871 0.8023673 0.7848287
0.8765195 0.91641873 -0.1519314 1.0132405 -0.5634593 0.7648984 -0.12785389 -0.039708905
0.8570669 -0.36713678 0.53718823 0.66926867 -0.20324457 0.9961151 -0.22851416 0.8498102
-0.60474443 0.6634281 -0.5378749 -0.27943063 0.7302228 -0.6179701 0.8955048 0.42630425
0.6749191 0.38546145 0.08098622 -0.16389933 0.66197324 0.4831078 -0.49896848 -0.6035065
0.42210805 0.7721668 -0.17605841 0.99685234 -0.12725522 -0.5131702 -0.576721 -0.27860978
0.67597353 -0.36537585 0.686456 -0.5311654 0.7370892 -0.44510534 0.56681764 -0.10014416
0.60709244 0.6804065 0.40836346 0.6761572 -0.5773266 -0.3375295 -0.5023473 -0.12494936
-0.6203947 0.45092326 0.19285904 0.1553272 0.11751529 -0.64749336 -0.4199748 0.74272263
-0.14530347 0.82228565 0.78613544 0.6379104 0.6694752 0.53054607 -0.6161649 0.8125582
0.6379852 -0.3899847 -0.012570465 -0.09009854 0.6890387 0.7362401 0.1608487 -0.6153999
0.9539667 0.86830884 0.8357687 -0.46545097 -0.26867667 0.83075386 0.5139933 -0.18216965
0.54357594 -0.66741973 -0.06011878 0.14331195 0.6603158 -0.08854838 0.06542744 -0.30458638
0.6530411 -0.5561714 0.6838879 0.574222 0.9657739 -0.615686 0.65897024 0.7001737
0.4042697 0.053682752 0.004143978 0.12255074 -0.13311812 -0.18261178 -0.37644354 0.8347338
-0.3997791 -0.265107 -0.060667504 0.99085206 0.6855173 -0.07054982 0.7913599 -0.07417019
0.5548315 0.8205079 0.3702269 -0.1712638 0.96305835 1.023826 -0.15777352 1.0386949
0.97592044 -0.47143272 0.746695 0.9901543 -0.033648442 -0.080333196 -0.3730711 -0.5752897
0.83996946 -0.61576885 0.8705444 -0.60728836 0.6774379 0.86315256 0.093622796 -0.2611602
-0.5470644 -0.15655239 -0.6509429 0.53382725 0.49745882 0.08606665 0.552182 -0.5949912
0.9341176 0.81479347 -0.39385438 0.8211294 -0.62747604 0.6353253 0.80023545 0.9975452
0.7408369 0.5276979 -0.15893947 -0.6742308 0.7869077 0.3367931 -0.5604505 -0.14220943
0.0006227905 0.7592112 0.08592989 -0.58591175 0.7481234 0.65784794 0.72574437 -0.43617845
0.9935602 -0.10154762 0.49341837 0.62438124 0.9624245 -0.6144508 0.76040894 0.8201895
0.47299424 0.6843631 -0.56375754 -0.66633075 0.09178107 -0.5981694 0.86137986 -0.012682111
0.8323365 0.77944636 0.67328703 0.61716515 0.11773344 0.5872866 -0.037418146 0.9968394
0.5531745 -0.130309 0.5766782 -0.038805604 0.82388055 -0.07481023 -0.51906055 0.6083121
0.8291192 -0.47890037 0.81511146 -0.5999136 0.9655685 0.31610045 0.61791146 -0.67577374
-0.52410173 -0.12439879 0.84006137 0.644755 0.97116613 -0.6143663 0.044345837 -0.040034954
-0.6051067 -0.5188107 0.60234094 0.4027037 -0.09882907 0.679701 -0.48465788 0.8631848
-0.29391488 -0.41322163 -0.12617101 0.69234204 -0.6118123 0.6620485 0.6317581 0.92553896

weight f4 [1, 256]
00000000: a35c ab3e 2e78 9d3e 63f8 bc3e 6920 dd3e
00000010: 8f4c 99be 90ca 8dbf d9e1 6dbf 0966 ecbe
00000020: d922 6a3f dc06 fdbe 42ad acbf ecda 8ac0
00000030: 5d2a 773e c2e0 e53e 3eda 143f 4fcb b73e
00000040: b64f 3c3f 4373 803e dae3 17c0 18db fc3f
00000050: afe9 9abe f31a ba3e 4f38 4ec0 4238 a4bf
00000060: cd1f 083f 29be 88bf 2d49 4b3e e31c 963e
00000070: f98c 73bf 2635 de3e 941a f8bf 1da6 573e
00000080: f5a8 68be 8087 693f 99fa 6ebf 969c 79bf
00000090: 3c2c ae3e 6099 e0be 9c6f b23e 564d 59c0
000000a0: d57d 933e d495 85c0 683e bac0 3dbe 83bf
000000b0: 6ab0 8f3e 8df8 263e 20ea acbf fc3f cebe
000000c0: 39ee 99c0 25bc d33e 646c 5cbf 2b95 dd3e
000000d0: e1ca 10bf 5620 20bf 8eb4 9abe 9ba2 ca40
000000e0: 1ca5 913e 2071 48c0 901a a03e 94ca 0fbf
000000f0: 8a42 b33e 269f 61bf c209 543e 942e 9ebf
00000100: 082e e0c0 7404 983e 0fae e63d d897 9c3e
00000110: a4a1 6cbf dd07 17bf 7cee 47bf d64d b6be
00000120: 4144 bcbe e57c 593f 2c7f 283f e1d8 4640
00000130: f2c8 3ec0 0224 90be 3b60 98bf 5fa8 b63e
00000140: 6d9b debe d356 5c3e f3cb fb3d 29c3 863e
00000150: 1e56 8a3e 02ff 603f 65a6 0fbf f15f 123f
00000160: 04fc 883e 84af 30bf bbd2 91c0 496b 58bf
00000170: f5ae 8c3e e829 633f 4fde 70c0 2b3a 36bf
00000180: c65b 1f3f 62ad b83e ee2b b53e f75c 62bf
00000190: 7de2 0dbf 97f4 c13e 0d72 453e 02f0 92be
000001a0: b18f b1c0 8fed 96bf 78d0 b6bf 6e92 9ac0
000001b0: c01d 8d3e 037d abbe 2fa1 be40 42ff 84bf
000001c0: a056 913e b1f2 2bbf cfbc 963e 266f 593e
000001d0: 9b6f 953e 6c9c 95be 31c3 a43e 648e 9f3e
000001e0: 3987 f5c0 4187 76c0 344b 82c0 0c57 62c0
000001f0: 43b8 44c0 0089 abbf b44a b9bf 94db 913e
00000200: bed1 4fbf 8d8c 8fbf fad4 33bf f79e 063f
00000210: 9d68 943e 82ff 76be 3451 e6c0 e809 b5bf
00000220: 34d2 623f c8dc a53f 3757 2c3f c1a5 d5bf
00000230: e014 cb3e bc45 283f 04f2 44bf b3bd 293f
00000240: b0c3 b23e 7548 05c0 ee17 be3e 3f70 eb3e
00000250: 318e e33f 3a9f 60bf 06ae 85bf bb95 ddbe
00000260: 75f1 8f3e 5a35 bdbe a10f 9e3e de35 b4bf
00000270: 2ebc 9f3e fb6f c63e 1c10 45c0 35ac 86bf
00000280: 87c8 88bf 221f fbbe cff5 42bf 81b8 42c0
00000290: d762 263e 9e3b 96c0 0240 4f3e 0f38 c1be
000002a0: 306d 363e e997 8b3e f806 6cbf ac7b 5b3e
000002b0: 692f 88bf 9fd1 803e e118 f73d eb2d 013f
000002c0: 0ca1 b23e 6081 333e bee1 34bf b7f4 78bf
000002d0: 6735 633f d5fd 8ac0 e59a 78bf 9686 ffbe
000002e0: 01f4 87c0 b268 be3e d568 0c40 b979 02bf
000002f0: e637 c23e bf7f 07c1 6fb6 b23e 29a0 83bf
00000300: 7e8c c23e ca8b 9cbf 74fb 9cc0 5e18 863e
00000310: eaae c43e e288 c5be cab1 b93e 696a de3e
00000320: a5cd f8c0 f95f 9a3e d05f 8abf 44c8 d2be
00000330: fc86 7ec0 5fa4 87bf a675 ba3e 9ef6 bf40
00000340: 12ee 9a3e b600 d53d 843b 903e 14d5 833e
00000350: ceb1 20c0 e522 213f 0545 f0be f199 a03e
00000360: 6108 a93e 4d21 c240 f9f4 563e 54a3 ccbe
00000370: 6e68 6c3e a546 8b40 0380 99bf 2bd3 843e
00000380: 71ff a13e f2da a1bf dca2 253e a209 66bf
00000390: ce8a f63e cb3e 81c0 6129 fdc0 0151 b4be
000003a0: 9788 7fbf 03a8 05bf d51e e03e f0b0 883e
000003b0: 03ee d53e b6e9 b5bf af93 1240 cb24 88bf
000003c0: ec0b d5be 051c 67bf 961e 7e3e 358d 7d3f
000003d0: 548f 8bbf 157c 9c3e 3993 60bf fcbe c13e
000003e0: 2b7a b5bf 9af2 39bf 261e 8cbe 8d57 ab3f
000003f0: e5ac a9bf dec5 8f3e d7e7 883e 81b0 613e
0.33469114 0.30755752 0.36908254 0.4318879 -0.29941222 -1.1077442 -0.9292274 -0.46171597
0.91459423 -0.49419296 -1.3490374 -4.339224 0.24137254 0.4489804 0.5814551 0.358973
0.7355913 0.25087938 -2.373282 1.9754362 -0.3025641 0.36348686 -3.2221868 -1.2829669
0.53173524 -1.0683032 0.19852133 0.29318914 -0.9513698 0.43399924 -1.9383111 0.21059461
-0.22720702 0.9122238 -0.9335113 -0.97504556 0.34018123 -0.43867016 0.34850776 -3.3953452
0.2880694 -4.1745396 -5.820118 -1.0292431 0.2806428 0.16305752 -1.3508949 -0.4028319
-4.81033 0.4135448 -0.8610289 0.4327787 -0.5655957 -0.6254934 -0.30215877 6.3323493
0.2844628 -3.1319046 0.31270266 -0.56168485 0.35011703 -0.88133466 0.20706847 -1.2357965
-7.005619 0.29690897 0.11263668 0.30584598 -0.92434144 -0.58996373 -0.78098273 -0.3560626
-0.36770824 0.849562 0.6581905 3.1069872 -2.9810147 -0.28152472 -1.1904367 0.35675332
-0.43477955 0.21517496 0.122947596 0.2632077 0.27018827 0.8788911 -0.5611327 0.57177645
0.26754773 -0.69017816 -4.556974 -0.84538704 0.27477232 0.8873582 -3.7635686 -0.7118251
0.6224941 0.3606978 0.35385078 -0.88423103 -0.5542372 0.3788192 0.19281788 -0.28698736
-5.5487905 -1.1791247 -1.428237 -4.8303747 0.2756176 -0.33493814 5.9571757 -1.0390399
0.28386402 -0.6716719 0.29440925 0.21233806 0.2918671 -0.29220903 0.3218017 0.31163323
-7.6727567 -3.8520052 -4.07168 -3.536563 -3.0737464 -1.3401184 -1.4475923 0.28487837
-0.81179416 -1.1214768 -0.7024685 0.5258631 0.28986064 -0.24120906 -7.1974125 -1.4143648
0.88601995 1.2958002 0.6732058 -1.6691209 0.39664364 0.65731406 -0.76931787 0.66305083
0.34914923 -2.0825474 0.37127632 0.45984074 1.7777768 -0.8774296 -1.0443733 -0.43278298
0.28113905 -0.36954767 0.308713 -1.4078939 0.31198257 0.3875731 -3.0791082 -1.0521303
-1.0686196 -0.4904719 -0.76156324 -3.0425112 0.16248642 -4.6947775 0.20239261 -0.37738082
0.17815089 0.27264336 -0.92198133 0.21433896 -1.0639468 0.25159928 0.12065292 0.5046069
0.34888494 0.17529821 -0.70656955 -0.97248405 0.8875336 -4.3434854 -0.9711135 -0.49907368
-4.2485356 0.3718925 2.1938984 -0.50966984 0.37933272 -8.468688 0.3490481 -1.0283252
0.37997812 -1.223016 -4.905695 0.26190466 0.384147 -0.38580996 0.36268455 0.4344056
-7.775103 0.30151346 -1.081049 -0.41168416 -3.9769888 -1.0597037 0.36417884 5.9988546
0.30259758 0.10400526 0.28170407 0.25748503 -2.5108523 0.6294387 -0.46927658 0.31367448
0.33014205 6.066565 0.20991887 -0.3996836 0.23086712 4.3523736 -1.1992191 0.25942358
0.316402 -1.2644942 0.16175407 -0.8985845 0.48152775 -4.038915 -7.911301 -0.3521805
-0.99817795 -0.5220949 0.43773523 0.26697493 0.4178315 -1.4211948 2.290264 -1.0636228
-0.41610658 -0.9027713 0.24816355 0.9904359 -1.0903115 0.30563417 -0.87724644 0.37841022
-1.4177908 -0.72635806 -0.2736675 1.3386093 -1.3255888 0.28080648 0.2673938 0.22039987

obs_std f4 [41]
00000000: 0475 b93c 40d5 be3d 1cf0 f83d 934c 9c3c
00000010: 3f8e 993f 8053 b83f 82d0 9e3f 2457 903e
00000020: ddaf 613e 87b9 8c3e 81fb 953e ea54 8d3e
00000030: a290 8e3e 932e 903e cd9f 623e 9e03 8c3e
00000040: e9c0 953e a481 8b3e 2159 8d3e 72ea 4940
00000050: 3c5e 4c40 5b82 c340 f344 a840 ece6 db40
00000060: fee2 9c40 ab58 4a40 b3e2 4c40 c90b c340
00000070: 3b7f a940 f57e dc40 1be0 9c40 e2b3 2a3f
00000080: e0ab 3e3f 51cf 5a3e afe0 853e 9a29 883e
00000090: 425f 513e 788c 4c3e bfbe 513e 1367 a13e
000000a0: 8e89 c03e
0.022638805 0.09318018 0.12155172 0.019079482 1.1996535 1.4400482 1.2407382 0.28191483
0.22039743 0.27485296 0.29293445 0.27603847 0.2784472 0.28160533 0.22131272 0.2734651
0.2924874 0.27247345 0.27607062 3.1549344 3.1932516 6.1096625 5.2584167 6.8719387
4.902709 3.1616619 3.2013366 6.0951886 5.296781 6.8904977 4.9023566 0.6668073
0.7448101 0.21368147 0.26147982 0.2659424 0.20446494 0.1997546 0.2048292 0.31523952
0.37604946

obs_mean f4 [41]
00000000: 19dd 7c3f 3b40 37bb d7c7 57bb 1b6e 37b9
00000010: 4b2d 29bc 9cc1 13be 027c 9a3b 940e 17bf
00000020: af16 4cbd 1cb6 ff3b f91f 863f f00e c93c
00000030: 4bcf e7be 7593 19bf a4e4 7d3d 3270 4abc
00000040: efa3 863f 4964 abbc 812d e4be 6ad7 4ebe
00000050: d4d0 3c3d b966 be3d 7337 253f 0da8 343d
00000060: 42ea a4bd 11bc 6abe 4d4f 05bc d877 ccbd
00000070: 3c83 253f 800c b3bc d121 14bd 278c 9e3c
00000080: 57e4 813c 20a2 c63d ff94 3d3e 8435 b73b
00000090: 5686 6f39 d336 2fbf f476 2fbf f68f eab9
000000a0: 8d18 6cbb
0.9877487 -0.0027961868 -0.003292551 -0.00017493257 -0.01032574 -0.14429325 0.00471449 -0.5900662
-0.04982632 0.0078036916 1.0478507 0.024543256 -0.4527534 -0.59990627 0.061985627 -0.012355851
1.0518779 -0.020921843 -0.44565967 -0.20199361 0.04609759 0.092969365 0.64537734 0.04410558
-0.08052494 -0.22923304 -0.008136583 -0.09983796 0.6465337 -0.021856546 -0.036165062 0.01935394
0.015855951 0.09698892 0.18513869 0.0055910964 0.0002284286 -0.6844303 -0.68540883 -0.00044739217
-0.0036025376
